rage-gauge/model.pt (torch, 110968 bytes, 50 tensors)

conv1.weight f4 [8, 1, 5, 5]
000000 c6 d0 c8 be d3 68 5f be 2f fe 46 bc 5c 21 3a be
       -0.39221781 -0.21817331 -0.012145563 -0.18176788
000010 dd d5 10 bf 0d e0 88 bd 00 3f 07 be ae c7 35 3e
       -0.5657633 -0.06683359 -0.13207626 0.17751953
000020 ad 0b 59 bd d3 21 35 3d 7c ce d7 3e 88 06 3e bd
       -0.05298965 0.04422171 0.42149723 -0.046392947
000030 fd fc 0f be d7 5f 86 bd 7b 86 87 3e 11 c5 aa 3c
       -0.14061351 -0.06561249 0.26469788 0.020845922
000040 5f 30 3c 3c cf 0d 09 3d 5e 5a 84 3e 05 d3 c6 3d
       0.011486142 0.033460435 0.25850195 0.097082175
000050 c5 e7 7b bd f3 26 75 3e a2 e0 0a 3c 19 ce 74 3e
       -0.06150033 0.23940639 0.008476408 0.23906745
000060 c3 2a e5 3d 9c 48 f8 3b 5c 57 ff bd ee 3f 32 3e
       0.11189797 0.007577015 -0.12467834 0.174072
000070 4b 89 d6 bd 54 6b 28 be eb 47 17 bd 54 13 32 3f
       -0.10475405 -0.16447192 -0.03693382 0.6956074
000080 6a 99 8e 3e 8d f2 11 be 1e a5 38 3d 2d 92 e9 3e
       0.2785142 -0.14252682 0.045079343 0.45619336
000090 ce 2d 35 3f 04 c7 00 3f 1b 03 fd 3d de 51 da 3e
       0.7077302 0.50303674 0.12354108 0.42640585
0000a0 36 f9 2e bd 04 54 39 3d 66 e2 e1 be e7 6d 11 3f
       -0.042718135 0.04524614 -0.4411804 0.5680832
0000b0 d1 41 98 be 2a 50 aa 3d 74 50 3b be 54 8b 2c 3e
       -0.29737714 0.08316071 -0.18292409 0.16850024
0000c0 b1 f5 cd be 33 35 a8 be 5b 2d 86 bd 88 35 03 bf
       -0.4022651 -0.32853088 -0.065516196 -0.5125356
0000d0 c1 5b fd be dd 2a 81 be b7 b9 f6 be b3 58 79 be
       -0.49484065 -0.25228015 -0.48188564 -0.24350242
0000e0 f0 b4 d9 3e de 8f 9d 3d 82 fd bf bd 9f 44 ca 3d
       0.42520857 0.07693456 -0.09374525 0.0987637
0000f0 ea bd 8b 3e 2a 61 a2 bd 4a 1a 11 3d 92 c5 af bd
       0.2729333 -0.07928689 0.03542546 -0.085826054
000100 66 05 b6 bd 5d 78 11 be b7 71 0f 3e 45 5d c3 be
       -0.088877484 -0.14206071 0.14008223 -0.38157097
000110 99 36 65 3e 60 16 a5 bd 1f eb e6 bd a1 bb ae be
       0.22384109 -0.08060908 -0.112753145 -0.34127524
000120 7a 98 6a 3b 57 af 8c be 8a 95 4a 3d a2 79 ae 3c
       0.003579645 -0.27477524 0.049459018 0.021298233
000130 16 4f 60 3d 93 f9 5b be c4 7d ca 3e cc d5 d5 3e
       0.054762922 -0.21481924 0.39549077 0.41764677
000140 c0 3a 36 be c6 8b 55 be 98 db f3 3d 5c 45 bf be
       -0.17795849 -0.208541 0.119071186 -0.37357605
000150 ba aa 12 3e 44 91 38 3d 5f 1f c2 3e 91 42 67 3f
       0.1432294 0.04506041 0.3791456 0.9033595
000160 97 82 0d 3f c4 1a b1 3e 2c 8d fc 3d 7f cb b7 3d
       0.5527739 0.34590733 0.12331614 0.08974361
000170 8c 5e 13 3d 53 14 86 bd 87 c9 74 3e 3a 59 d8 3d
       0.03597884 -0.06546845 0.23905002 0.105638936
000180 73 73 2e 3d b0 cc b8 3b 91 25 6f bd ba e9 2c bc
       0.04259057 0.005639635 -0.058385435 -0.010553772
000190 a1 45 97 3e 91 a1 a6 be 3c f1 74 bb e4 72 5f be
       0.2954531 -0.3254514 -0.0037375232 -0.21821171
0001a0 73 67 b1 be 68 4b a0 bd e5 89 fd bb e5 20 92 3d
       -0.34649238 -0.078268826 -0.0077373856 0.071351804
0001b0 b9 b9 0f be d3 18 96 3d 2f cc a5 bc 75 65 49 be
       -0.14035691 0.073289536 -0.020238964 -0.19667609
0001c0 91 6f 0d bd 75 6e 94 be 2f 51 4e 3d e3 64 e0 3d
       -0.034530226 -0.28990522 0.05037039 0.109567426
0001d0 90 ac de be 2b 51 91 be f0 7a a0 be 36 07 16 bf
       -0.4349103 -0.2838224 -0.31343794 -0.58604753
0001e0 4e 4d 2d 3f 3e 7e e6 3d 62 e5 ca be b8 dc b1 be
       0.6769608 0.112545475 -0.3962813 -0.34738708
0001f0 e3 ef 40 be 3b 01 31 3f 9d 42 f2 3e 9c 15 94 3d
       -0.1884151 0.691425 0.47316447 0.07230684
000200 e6 a9 08 be 3b f6 15 bf 3d 84 8f be 35 43 34 be
       -0.13346061 -0.5857884 -0.28030577 -0.17603762
000210 ab 11 92 3d 9e 97 3d 3c 38 f5 60 3e 05 3b a7 be
       0.07132276 0.011571793 0.21968544 -0.32662216
000220 3d c2 dd 3e cc 80 60 be c7 e0 a9 bd 3b b1 43 be
       0.43312255 -0.21924132 -0.08294826 -0.19110577
000230 5f cc 9e 3e 8d 57 87 be 48 2d 4e bd be a5 d2 be
       0.31015298 -0.26433983 -0.050336152 -0.41142076
000240 1e ce 05 be 97 f2 99 3e 77 b9 19 3f c9 d0 28 be
       -0.13066909 0.30067894 0.6004862 -0.16485895
000250 de cf f2 3d 68 6c 15 3e af a3 0e 3f e6 1b 44 3f
       0.11856054 0.14592135 0.5571851 0.7660507
000260 d9 a5 47 3f 8e 90 21 3f 52 2c 22 3f 38 bb 46 3d
       0.7798744 0.631112 0.6334888 0.04851839
000270 5a 85 f9 bd b2 76 a3 bb c0 a5 65 3e a9 7d e2 3b
       -0.12183638 -0.004988515 0.2242651 0.0069119525
000280 6b dc 1a bc 0e 64 05 be ff 9d d1 be 4b b4 9f be
       -0.009451966 -0.13026449 -0.40940854 -0.3119224
000290 98 77 22 3e c9 5f b1 3e 0a db 43 3c e7 a7 40 be
       0.15865934 0.3464339 0.011954078 -0.1881405
0002a0 71 b7 9e be d7 29 14 3d 38 61 7e be 3e e4 f3 3e
       -0.3099933 0.036172714 -0.24841774 0.47635072
0002b0 d2 06 d1 bd 8d a0 8c bd 19 09 a1 bd 95 94 96 3e
       -0.10206379 -0.0686656 -0.07863063 0.29410234
0002c0 18 d3 ad 3d 7e 6c 24 3e 07 36 ec 3e 15 13 08 be
       0.084875286 0.16057011 0.4613497 -0.13288529
0002d0 50 47 53 3d 85 e1 d8 3e 0e b1 e1 3c 47 b5 d0 bd
       0.05158168 0.42359558 0.027550247 -0.10190826
0002e0 fa 8d c8 3c ba 34 8b 3e 6d 88 ed 3c 24 67 55 be
       0.024481762 0.27188665 0.028995717 -0.20840126
0002f0 4f ff 96 3d 17 e3 c6 be 55 fa 9a be d9 ef 93 be
       0.07372915 -0.3884513 -0.30269113 -0.28893927
000300 88 00 ee 3d 91 78 ac bc 07 34 1d be 15 97 02 bf
       0.11621195 -0.021053584 -0.15351878 -0.5101178
000310 3c 38 a1 be 69 5a fa be 1c aa 58 be 42 fe 56 be
       -0.31488216 -0.48897102 -0.21158642 -0.20995429

conv1.bias f4 [8]
000000 3b 85 a1 3d 2c 15 03 bf 01 40 83 3e 38 74 62 be
       0.0788674 -0.5120418 0.2563477 -0.22114646
000010 fb 89 28 3e b6 e8 39 bd ba 0a 04 bf 71 c1 a3 3e
       0.16458885 -0.045387946 -0.5157887 0.31983522

bn1.weight f4 [8]
000000 da 74 65 3f 64 97 82 3f 37 fd 81 3f f3 25 81 3f
       0.89631426 1.0202451 1.01554 1.0089706
000010 a7 04 72 3f a4 9a 5c 3f 1c b3 8e 3f 2c 28 7c 3f
       0.9453835 0.8617346 1.114841 0.984988

bn1.bias f4 [8]
000000 1a 16 ab 3d 90 98 59 be 74 bc c8 3c 41 46 60 be
       0.08353825 -0.21249604 0.024503924 -0.219018
000010 fc 47 ae 3d 39 0c 65 bc be c5 b0 3d b2 17 d6 3d
       0.08509824 -0.013979965 0.08631466 0.10453738

bn1.running_mean f4 [8]
000000 84 f6 5d 40 a7 de 97 40 25 a0 50 42 85 6c b0 40
       3.4681711 4.7459292 52.15639 5.513247
000010 69 eb 80 42 fb ad 59 40 01 c3 c3 40 b2 c7 04 42
       64.459785 3.401244 6.117554 33.195015

bn1.running_var f4 [8]
000000 56 71 64 42 ab e6 26 43 86 ab 39 45 dd 8f 6d 43
       57.11068 166.90105 2970.7202 237.56197
000010 2e 7f 85 45 9a cb 8b 42 ac fe 86 43 33 65 8d 44
       4271.8975 69.89766 269.98962 1131.1625

conv2.weight f4 [16, 8, 3, 3]
000000 a2 e8 a6 be ab 5e 44 bd 3f 7a de bd 8e 35 a9 3c
       -0.3259936 -0.047941845 -0.1086316 0.02065542
000010 26 d0 91 be 43 72 11 be 22 2b 0e be 2c d4 98 be
       -0.28479117 -0.14203744 -0.13883641 -0.29849374
000020 50 f5 3e be 84 e1 7f bd 04 6e 34 3e a9 87 df bd
       -0.18648267 -0.062470928 0.17620093 -0.10914547
000030 db f4 d2 bd c0 4d 78 3d 51 22 c9 3d 02 fa 0a 3e
       -0.10300609 0.060621023 0.098209985 0.13571933
000040 b8 6a d5 bd 50 c2 a4 3e 3e e6 d6 3e 94 e3 a4 be
       -0.104207456 0.321795 0.41972536 -0.32204878
000050 1c d5 27 3e 81 87 30 3e c3 27 22 3e 99 fe 5b be
       0.16389889 0.1723919 0.1583548 -0.2148384
000060 8b 95 c5 3d e4 db 1a 3e 45 2f 6c bd 31 8a b2 be
       0.09647664 0.15122944 -0.057662267 -0.34871057
000070 0d 39 ac 3e 04 67 36 3e b5 2f 0e 3e 0b d7 45 be
       0.33637276 0.17812735 0.13885386 -0.19320314
000080 e0 09 bc 3e 50 ea f5 3d fb 9e 64 3e 9e 6a 85 3e
       0.36726284 0.12007582 0.22326271 0.26057905
000090 7e 5f 9f 3c 2e b1 d1 3c 10 2d 20 be b3 a6 b5 bd
       0.019454714 0.025597181 -0.1564219 -0.08869686
0000a0 56 b5 30 be 64 7b 97 bd ea e8 58 3d ac 63 02 3e
       -0.17256674 -0.07396582 0.0529565 0.12733334
0000b0 0d 82 02 3c 55 78 53 3e 3b a6 6e 3e df 18 3e 3e
       0.007965577 0.20651372 0.233056 0.18564175
0000c0 57 61 7f 3d f3 4e 8a 3e b5 f2 5e 3e 66 71 1b 3e
       0.06234869 0.27013358 0.21772273 0.15179977
0000d0 8a 6c 3f 3e 22 e1 11 3e 75 31 94 be b0 cd 0c 3c
       0.18693748 0.14246038 -0.28943983 0.008593962
0000e0 6e 76 9f be b4 7e c1 bc 45 83 40 3e 89 73 92 3d
       -0.31145042 -0.023619987 0.18800075 0.07150943
0000f0 40 ea 4e bd 98 c9 94 3e f0 1c e2 3d 51 69 52 3e
       -0.050516367 0.29060054 0.11040676 0.20547988
000100 95 ec ed ba 81 92 e1 3d 9a e7 48 be fa 04 af 3c
       -0.0018152172 0.110142715 -0.19619599 0.021364678
000110 2c cd ff bd 31 4e 1c be 90 b6 8a bd 73 4d 3a 3e
       -0.12490305 -0.15264203 -0.06773102 0.18193607
000120 96 4e 17 be 7a 08 10 be a4 42 b4 be 8e cf 0f be
       -0.14776072 -0.14065734 -0.35207093 -0.1404402
000130 97 3a 30 be 17 33 95 be 7e d8 70 be 82 fc 27 bd
       -0.1720985 -0.2914054 -0.23520085 -0.041012295
000140 de 7d dc 3c e9 2b 86 be c9 f2 ad be 47 00 01 3e
       0.026915487 -0.26205376 -0.33974293 0.12597762
000150 62 27 08 be b8 97 7e be ff 51 24 bd 36 ef ac 3d
       -0.13296273 -0.24862564 -0.04011726 0.08444063
000160 70 83 75 3b 56 8b f5 bd 1f 6c cf 3d 85 e7 91 3d
       0.0037462376 -0.11989467 0.10128044 0.07124237
000170 a6 22 4d bd 4a 26 58 3c c5 f0 3a be 05 4f bb bd
       -0.05008187 0.013192723 -0.18255909 -0.09145931
000180 42 62 08 be 40 d8 38 be 51 a2 c3 be 3f fe c6 3d
       -0.13318732 -0.18051243 -0.38209775 0.09716462
000190 9b 58 d1 3d c4 e7 e9 bc 83 f5 0d be 61 23 0a bd
       0.10221978 -0.028552897 -0.13863187 -0.033725146
0001a0 c4 90 64 3c e1 75 7d 3a 70 5d bf 3d 0d cc 80 3e
       0.01395053 0.00096687494 0.09343994 0.25155678
0001b0 80 35 03 be e6 cd 87 3d 9c 00 ea bd 76 bf a8 be
       -0.12813377 0.06631069 -0.114258975 -0.32958573
0001c0 fb 01 20 be 3f da aa bd 5f cd da be 96 b1 cb be
       -0.15625755 -0.083424084 -0.4273481 -0.39783925
0001d0 fe af 2c bc 12 8d 97 bc 53 48 9b bc fa 33 de 3c
       -0.010540007 -0.018499885 -0.018955385 0.027124394
0001e0 9b a2 de bd 9a 8e 67 3d bd 5c 1c bc b3 c2 87 bc
       -0.10870858 0.05653248 -0.009543595 -0.016572332
0001f0 ab af 20 3e 47 f2 13 3e db 88 9e 3e 95 7d ba 3d
       0.15692012 0.1444789 0.30963787 0.09105984
000200 de 57 c8 bd f3 38 a7 3d 5f 0f 5e bd b7 ab 1c be
       -0.09782384 0.08165159 -0.054213878 -0.15299879
000210 ed 37 02 bd 7b ac eb bd 3f 43 56 3e 45 53 0c be
       -0.031791616 -0.115075074 0.2092409 -0.1370364
000220 68 5c 57 be d7 7e 41 be 42 92 90 be f8 1e a5 be
       -0.21031344 -0.18896042 -0.28236586 -0.3225019
000230 44 0a 6c bd 78 f3 f5 39 5a d4 28 3d 00 8d 8e be
       -0.057626978 0.0004691144 0.04121814 -0.2784195
000240 e1 0b 89 bd 1a 12 9f bd 0a a3 0b be ea 87 9f 3d
       -0.06691719 -0.077671245 -0.13636413 0.077895954
000250 ba 21 ee 3d 6f 88 69 3c 98 10 d8 3d 29 32 f9 3c
       0.116275266 0.01425372 0.1055004 0.030419426
000260 f0 18 9b 3d b9 2a 29 be 91 c0 03 be 32 67 a6 bd
       0.07573116 -0.16520204 -0.12866427 -0.08125152
000270 42 61 85 be 64 d9 79 3c 8c be 11 be 38 5a 91 bd
       -0.26050764 0.015249584 -0.14232844 -0.07097286
000280 40 93 28 be 5a 9c 68 be c9 7c a3 be 7a a9 9d be
       -0.16462421 -0.22715893 -0.3193114 -0.30793363
000290 9a 57 70 be 35 ab 16 be 7c d2 1c bc f2 48 89 3e
       -0.23470917 -0.14713748 -0.009571668 0.26813465
0002a0 dd 59 7a bc 65 56 1c 3e b1 fe 7c be ff 60 ab bd
       -0.015280214 0.15267332 -0.24706532 -0.0836811
0002b0 f6 d1 80 3c be 4a 69 be 63 4c 14 3c 49 09 b0 3b
       0.015725117 -0.22782418 0.009051415 0.0053722006
0002c0 93 ff 47 bd 57 ff 3d be 00 1a c5 bd 0f 2c 28 bc
       -0.04882772 -0.18554436 -0.096241 -0.010264411
0002d0 85 66 85 3e a5 e0 f5 bc fa 31 a8 3d 21 80 02 be
       0.2605478 -0.030014345 0.08212657 -0.1274419
0002e0 89 58 5c 3e 6c e8 25 be 22 e8 c8 3d 41 c1 ba 3d
       0.21518148 -0.16201943 0.09809901 0.091188915
0002f0 7a 78 e7 bd e1 d6 b1 3e a9 45 cc 3d 55 ed 00 3e
       -0.11302276 0.34734252 0.09974224 0.12590535
000300 9c 66 93 3e 01 2e 83 3d 18 93 bd 3e 81 29 d4 3c
       0.28789222 0.06405259 0.37026286 0.025898697
000310 58 39 68 3e 4a 87 04 bc 32 eb 90 bc a8 2f 7e be
       0.22678125 -0.008088896 -0.017690275 -0.24822867
000320 50 0b ce bd 37 66 30 3d 15 34 0f be 40 82 06 bf
       -0.100607514 0.04306623 -0.13984711 -0.52542496
000330 ae b1 24 be ad 5b 75 be f1 ef 38 be 8a ce a8 be
       -0.16083404 -0.23960753 -0.1806028 -0.32970077
000340 f1 11 1d be a8 03 c6 3d cc 48 9a be 5a c9 00 bc
       -0.15338875 0.09668666 -0.30133665 -0.007860506
000350 d0 c4 98 3d 92 7a 0e be 81 1e 1e 3e 3d 56 7b bc
       0.07459414 -0.13913944 0.15441324 -0.015340385
000360 be ef 83 bd 2e 9d 1c bd 0a ea 2a be b2 18 52 3e
       -0.064422116 -0.038235836 -0.16690841 0.20517233
000370 8a 7b de bb 49 18 5b 3d e0 5b 51 3e 5b 86 86 3d
       -0.0067896293 0.053489957 0.20445204 0.06568595
000380 3a 34 18 be ed 34 5c be 14 cc 2b be bb ff 27 3d
       -0.14863673 -0.21504565 -0.16777068 0.041015368
000390 8e 0b 8b 3d 7a 83 20 3e f9 b4 29 bd 1c 75 4c 3e
       0.06789313 0.15675154 -0.041432355 0.19966549
0003a0 01 a7 02 3e 77 0b 35 3e b6 40 37 be 37 f3 b1 bd
       0.1275902 0.17680155 -0.17895779 -0.08688968
0003b0 4b 80 f8 bc e5 4d 33 bd 84 4c a2 bb 8e fd 7b 3e
       -0.030334612 -0.043775458 -0.004952969 0.24608442
0003c0 ae f8 9b 3e 61 36 08 3d d6 32 1f bd f8 43 20 be
       0.30463165 0.033254985 -0.03886684 -0.15650928
0003d0 ed fd 5a 3c 88 ab 78 be 28 5b 30 be 87 d4 c6 bc
       0.013366205 -0.24284184 -0.17222273 -0.024271263
0003e0 b4 92 84 3d 6b 13 18 be b1 8b 8d bc a9 e9 2d be
       0.06473294 -0.14851157 -0.017278524 -0.16983666
0003f0 bf c2 cb bd ac 38 ed bd 39 a9 6d be 62 86 ed bd
       -0.09949254 -0.11583075 -0.23209085 -0.11597897

conv2.bias f4 [16]
000000 90 61 68 be ea 9e a0 bd ee 60 62 3d 2b f6 02 bd
       -0.22693467 -0.078428105 0.05526822 -0.031973045
000010 08 84 1d be 5d 58 a4 be f5 8d fa bd e9 b7 a3 bd
       -0.15382397 -0.32098666 -0.122341074 -0.079940625
000020 54 41 07 3e c9 79 e6 bd 3b 4c 8e 3d a7 f7 f9 bd
       0.13208514 -0.112536974 0.069481336 -0.12205439
000030 58 58 bb bd 3c 10 91 be 6b 23 0e be 8c 1f 18 bd
       -0.091477096 -0.28332698 -0.13880698 -0.03713946

bn2.weight f4 [16]
000000 96 d8 84 3f 66 f5 82 3f 80 22 6b 3f bc d9 7f 3f
       1.0378597 1.023114 0.9184952 0.9994161
000010 ed c0 87 3f fd 89 86 3f c1 b4 62 3f a2 ee 76 3f
       1.0605751 1.0510861 0.8855706 0.96457875
000020 7b 96 74 3f a9 57 88 3f cf 2d 65 3f 44 20 7c 3f
       0.95542115 1.0651752 0.89523023 0.98486733
000030 df cd 55 3f 41 fe 8a 3f 9b 3b 8f 3f 30 29 67 3f
       0.8351726 1.0858842 1.1190065 0.9029722

bn2.bias f4 [16]
000000 78 f1 5e 3b a7 dd d9 3c fd df 21 3e dd 56 30 3e
       0.0034018438 0.02659495 0.15808101 0.17220636
000010 2d e7 44 3c 00 c1 07 3e de c0 31 bc 5f bc b6 bd
       0.012018007 0.13257217 -0.010849206 -0.08922648
000020 e2 93 d9 3c 2b 9a 27 3e 52 cc 85 3d d9 2e 7b 3d
       0.026559774 0.16367404 0.06533112 0.061323974
000030 40 67 47 3e 93 5e 56 3d 6b 5f b6 3d 77 1b 97 3d
       0.1947298 0.052336287 0.08904918 0.073782854

bn2.running_mean f4 [16]
000000 49 6e c5 3e 71 53 8b 3f 17 46 6c 3f 66 5d bb 3e
       0.38560703 1.0884839 0.9229445 0.36594695
000010 61 00 c3 3e 46 98 2e 3f 45 0a 52 3e 98 dc 37 3f
       0.38086227 0.682011 0.2051173 0.71820974
000020 c6 3b 14 3f 25 e3 21 3f 0b f4 5e 3f f9 34 22 3f
       0.5790371 0.6323722 0.8709113 0.6336208
000030 15 9f 82 3f 24 e8 a8 3e a7 be f8 3e 98 e2 27 3f
       1.0204798 0.3298961 0.48582956 0.6558013

bn2.running_var f4 [16]
000000 b5 8e c6 3f 08 23 c7 3f f6 ed 45 3f 3d cb 1f 3f
       1.5512301 1.5557566 0.77316225 0.6241949
000010 38 a5 85 3f 06 cd 44 40 ee 44 03 3f 83 8c 27 3f
       1.0441046 3.0750136 0.51277053 0.6544878
000020 b6 1f b6 3f 0e 5e cf 3f 6c bf e9 3f a9 5f d9 3f
       1.4228427 1.6200578 1.8261542 1.6982318
000030 1a 38 1b 40 56 b8 57 3f 42 f0 94 3f 7c c7 78 3f
       2.4252992 0.8426565 1.1635821 0.9717939

conv3.weight f4 [32, 16, 3, 3]
000000 62 49 9e bb 52 b1 27 3c b3 97 f3 bc e9 37 07 3e
       -0.0048305253 0.010235148 -0.029735422 0.13204922
000010 04 68 22 3e 0c a8 ee bc fe b7 fe 3d be df 2d 3e
       0.15859991 -0.029132865 0.124374375 0.16979882
000020 38 3d 8b bc 30 13 02 3e 8a a3 b1 bd 8a 3f 87 bc
       -0.016996965 0.12702632 -0.08673771 -0.01650979
000030 68 5c 6f 3d b1 e7 8a 3d ec 9a a9 3e 4a fd 31 bd
       0.058437735 0.06782473 0.3312601 -0.043454446
000040 79 2c c4 bc ed 50 88 3d b0 4e 19 be 0b c2 89 be
       -0.023946987 0.0665606 -0.14971423 -0.26905856
000050 6e aa 2c be b2 79 75 bc c0 0f 0d bd bf d2 cf 3d
       -0.16861889 -0.014982628 -0.03443885 0.101476185
000060 27 dd 92 3d d4 e0 14 3e 3f 1e fd bd f3 2e 62 3c
       0.07171088 0.1453889 -0.123592846 0.013805139
000070 f9 e7 7c bd a3 10 5b bd 0a c8 0f 3e 04 0e c3 bc
       -0.061744664 -0.053482663 0.14041153 -0.023810394
000080 40 5a 00 be 9c d4 f1 3d cc f1 03 3d 4a 5c d8 3d
       -0.12534428 0.1180813 0.032213017 0.10564478
000090 c9 45 47 3e 33 c2 4c bd a6 da 96 bb 53 18 ba bd
       0.19460215 -0.04998989 -0.0046037016 -0.09086671
0000a0 99 e8 b4 bd 44 2f 13 be b5 83 16 3e 48 3f 99 bc
       -0.08833427 -0.14373499 0.1469868 -0.018706933
0000b0 84 d6 7c 3b 5c 31 0d be f9 5e f6 3d c5 45 44 3e
       0.003858001 -0.1378836 0.12029833 0.1916724
0000c0 55 93 12 be 3b a2 a6 bd 17 2b 59 be 9c 1a 9a 3d
       -0.14314015 -0.08136412 -0.21207844 0.075246066
0000d0 78 cc 55 be 80 58 65 be 21 bd 1a be 28 4e 12 be
       -0.2087878 -0.22397041 -0.1511121 -0.14287627
0000e0 3a b3 ee bc 0c a8 40 bd 69 6b 58 bd 5e b9 1f 3d
       -0.029138196 -0.047035262 -0.05283681 0.03899514
0000f0 ee db 4c 3e 1a bb 88 bc f0 82 63 3d 77 e2 99 3d
       0.20005772 -0.01669078 0.055544794 0.07513898
000100 d1 8e a9 3d 96 f8 97 bd c3 bb 16 3e 1d a3 03 3c
       0.08279193 -0.07420461 0.14720063 0.008034495
000110 a9 f6 90 3d 81 1b 38 be 4c 02 d6 bd e7 58 8f bc
       0.07078297 -0.17979242 -0.10449657 -0.017498447
000120 c8 0d c4 3d bc 4f a1 bd ff 17 6b bd e5 4b 08 be
       0.09572941 -0.07876536 -0.05739593 -0.13310201
000130 61 86 2f 3e 93 68 12 3e de b8 b5 3d d4 2f 74 bd
       0.17141105 0.14297704 0.08873151 -0.059615925
000140 4d d0 49 bd 31 d3 87 be e2 47 c0 be 34 58 83 be
       -0.049270917 -0.26528314 -0.37554842 -0.2565323
000150 b2 c6 b4 be 99 d7 05 be 95 d0 76 be 50 2c 3e be
       -0.35307842 -0.13070525 -0.24103005 -0.18571591
000160 73 18 e3 bd ae a0 f1 3d e9 68 7f bc f4 da bc 3c
       -0.11088648 0.11798225 -0.015588977 0.023053624
000170 22 da aa 3d d0 61 cd 3d 22 5c 86 be 37 50 dc bc
       0.08342387 0.10028422 -0.26242167 -0.026893718
000180 2a 1b 89 bc d1 5d 13 bd df 40 90 be 26 33 ef 3d
       -0.016736586 -0.035978142 -0.28174493 0.11679678
000190 94 a1 d3 3d 5f 18 20 3d 72 ab ba bd ea 79 2b bc
       0.10333553 0.039085742 -0.09114732 -0.010466078
0001a0 1e 8d d5 3d 45 cc 63 be fa ca 34 3c b1 01 c1 bd
       0.104273066 -0.22245891 0.0110347215 -0.09424151
0001b0 09 f9 21 3d 0b 3b 10 bb e6 4b 7d 3c 8a 7b 16 be
       0.03954414 -0.0022007849 0.01545999 -0.14695564
0001c0 54 74 33 3e 8a 0f 8a 3d 4d 61 a7 bb 78 32 ee bd
       0.17524844 0.06741245 -0.0051080347 -0.1163072
0001d0 b4 50 39 3e 04 81 41 3e 14 9f b4 3d 4c 5b 4b 3e
       0.18097192 0.18896872 0.08819404 0.19859046
0001e0 e4 ba 27 be 88 9d fe bd 4b 4f a2 bd 1b 6c aa 3d
       -0.16379887 -0.124323905 -0.0792528 0.08321401
0001f0 c5 b3 99 bc 06 87 ba 3d 07 ad 87 be e3 d9 df be
       -0.018762479 0.09107785 -0.26499197 -0.43720922
000200 a4 2a c2 be a2 49 8a bc d7 31 7d bc 37 ce 53 be
       -0.37923157 -0.016880814 -0.015453777 -0.20684133
000210 7c 93 97 bd 7a f7 a5 bb 31 72 50 bd 04 fb 4c bd
       -0.07401177 -0.005064902 -0.05089015 -0.050044075
000220 1d be db 3d a1 66 85 be c1 ab 3c bd fd 78 cc bd
       0.107296206 -0.26054862 -0.046062235 -0.09984014
000230 99 78 87 be 23 3e 06 bd a0 5c 10 be a9 83 f8 3d
       -0.26459196 -0.032774102 -0.14097834 0.12134487
000240 25 89 a7 3d 32 51 e4 3d 26 3f 91 3d a5 aa 41 3e
       0.08180455 0.11148299 0.07092123 0.18912752
000250 e2 74 5a 3e 56 74 28 be b9 94 ac bd d2 eb fb bc
       0.2133365 -0.16450629 -0.08426804 -0.030752096
000260 26 44 b7 bc 4b 27 32 be 1b 6f 5c be 74 29 5a 3d
       -0.022371363 -0.17397802 -0.21526758 0.05326219
000270 a8 cd c3 3d 40 4c fb 3c c5 b8 90 3c 82 57 15 3e
       0.0956071 0.030676007 0.01766623 0.14584163
000280 a5 f6 e0 3c 43 86 27 3d 06 d5 67 be 89 bc a3 be
       0.02746136 0.040899526 -0.22639856 -0.31979778
000290 71 f6 4f 3d cb 68 49 3e 79 b3 e1 bd c8 b8 1b 3e
       0.050772134 0.19668882 -0.1102056 0.15207207
0002a0 e6 dc 1b be bd 10 11 be 47 04 5e 3e 99 08 6d be
       -0.15220985 -0.14166541 0.21681319 -0.23147811
0002b0 80 44 0c 3e 91 7a a0 bd bc 46 5a 3e 39 72 6a bd
       0.13698006 -0.07835878 0.21316046 -0.057237837
0002c0 7d 02 f4 3d 21 ef 8c be a3 82 34 3d b1 b4 4e be
       0.11914537 -0.2752619 0.044069897 -0.20186116
0002d0 87 7c 5f 3d 6b 72 97 be a4 e9 72 bd 3e 87 79 bd
       0.054562118 -0.2957948 -0.05930485 -0.060919993
0002e0 78 7d db 3d 7a ac af bd c1 f1 66 3e 04 08 83 bd
       0.10717291 -0.08577819 0.2255316 -0.06398013
0002f0 8e 85 2d be 02 e4 44 3d b9 20 81 3c e1 f2 1e bd
       -0.16945478 0.048069008 0.015762674 -0.038805846
000300 e2 1c 43 be 34 1d b4 3c a7 30 a8 be 2e 73 f9 3d
       -0.19053987 0.021986581 -0.3284962 0.12180172
000310 50 56 41 bd 42 50 5c 3b 38 ac 0d be 2c 77 1a 3e
       -0.047201455 0.0033617173 -0.13835227 0.15084523
000320 c0 df 69 bd 8b 1f ca b9 f7 3c 26 bc 39 f8 38 bd
       -0.05709815 -0.00038551944 -0.010146371 -0.0451586
000330 42 74 37 3e 65 31 0f 3e 02 e1 89 bd 62 29 87 3e
       0.17915443 0.13983686 -0.0673237 0.2639876
000340 4c 3c 49 3e b3 96 f2 3d d8 5e e9 3d 77 90 d2 3d
       0.19651908 0.1184515 0.11395043 0.10281461
000350 57 39 37 3d 48 64 ca ba a0 d3 98 bd ad 53 18 be
       0.044732418 -0.0015441263 -0.07462239 -0.1487567
000360 3d 77 5c be cf c8 02 be 81 97 bb 3d 32 d4 fe 3d
       -0.21529861 -0.12771915 0.091597565 0.12442817
000370 ed 85 3c 3e 01 70 fb bd b0 6a 87 be ae bd 05 be
       0.18410464 -0.122772224 -0.26448584 -0.13060638
000380 4a 3b 99 bd b2 25 99 bd d7 d4 a5 3d 66 06 10 be
       -0.074820116 -0.07477893 0.080972366 -0.14064941
000390 f6 86 6f 3b 58 a8 a0 bd 52 6f 31 be 90 92 fe bd
       0.003654895 -0.07844609 -0.17327622 -0.12430298
0003a0 20 75 b6 3e 2a 17 56 3e e9 fb 0d be ce 14 34 be
       0.35636234 0.20907274 -0.13865627 -0.17586061
0003b0 7e 0a df bd be 88 da 3c 25 f0 8c 3d ca 9a a8 bc
       -0.10890673 0.026676532 0.068817414 -0.020581622
0003c0 30 d2 20 bd f4 c7 88 3d d9 27 84 bc 23 52 17 bd
       -0.03926295 0.06678763 -0.016132282 -0.036943566
0003d0 5c be 88 3e 10 89 5d bd d1 d3 a9 bc f7 2d 3b 3c
       0.26707733 -0.05408579 -0.020730885 0.011424533
0003e0 eb f4 5c be 8d f6 1d be a2 5e 17 3b af cc 1b 3e
       -0.21577804 -0.15426083 0.0023097177 0.152148
0003f0 12 db 97 bd d6 69 70 be b1 04 ae bd b0 07 6d 3d
       -0.07414831 -0.23477873 -0.084969886 0.05786866

conv3.bias f4 [32]
000000 4a 0b 9e bd 95 7a b1 bd 46 d4 26 be 74 aa 23 be
       -0.07716997 -0.08665959 -0.16291913 -0.15982991
000010 4c f9 75 be d3 61 7d be 2b ca 07 be f1 68 00 be
       -0.2402088 -0.24744348 -0.13260715 -0.12540032
000020 89 95 23 be 57 b5 84 bc 76 27 f8 bd c0 9d df bd
       -0.15975012 -0.01619975 -0.121169016 -0.1091876
000030 61 c2 1c be 0b a1 a6 bd a5 7b 4e be b8 9c ed bc
       -0.15308525 -0.08136185 -0.20164354 -0.029005393
000040 4e 2f 9b bd 99 03 c5 bd e5 30 ec bd d2 ed 11 be
       -0.07577382 -0.09619827 -0.115327634 -0.14250877
000050 dd d6 fd bd 3b 5f 27 be 04 86 53 be 9f 3f ef bc
       -0.123944975 -0.16344921 -0.20656592 -0.029205142
000060 1e 27 7c be cb fa 84 be a9 1b 5e be a0 a6 0d be
       -0.24624297 -0.2597259 -0.21690239 -0.13833094
000070 51 4f cc 3d ec ca 21 bd 89 81 bd bd 68 f2 98 bd
       0.09976066 -0.039500162 -0.092532225 -0.0746811

bn3.weight f4 [32]
000000 4c 3b 7d 3f c5 b9 71 3f f9 aa 69 3f 60 1d 87 3f
       0.98918605 0.94424087 0.9127651 1.055584
000010 3e 21 51 3f 00 89 7b 3f 03 dc 7e 3f fe 36 75 3f
       0.8169135 0.9825592 0.9955446 0.95787036
000020 f1 bb 5f 3f 6b 07 85 3f 76 a7 72 3f 0b 41 67 3f
       0.8739615 1.0392889 0.94786775 0.9033362
000030 2f 7b 7a 3f 74 36 2c 3f e1 f2 66 3f 27 06 66 3f
       0.97844213 0.6727059 0.90214354 0.8985314
000040 3e 54 65 3f 47 16 7a 3f 90 05 6f 3f fe 0a 88 3f
       0.8958167 0.9769024 0.9336786 1.0628355
000050 4a 9e 87 3f 3e 4b 71 3f 32 23 5e 3f eb af 73 3f
       1.0595181 0.94255435 0.86772454 0.95190305
000060 b7 db 77 3f 8b ef 6b 3f 6a 6c 8b 3f 4d 7a 82 3f
       0.96819633 0.9216239 1.089246 1.0193573
000070 04 32 84 3f a7 68 5d 3f 52 b5 7f 3f 34 0f 85 3f
       1.0327764 0.8648781 0.9988605 1.0395265

bn3.bias f4 [32]
000000 fc 54 61 bd 40 06 93 be d2 a6 0c 3f 0e 9e e3 3e
       -0.055012688 -0.28715706 0.5494205 0.44456524
000010 ec b5 12 be ff 75 12 3f 69 bf c1 3e a8 bb a4 3d
       -0.1432721 0.572113 0.37841347 0.08043605
000020 9a b6 0e be 0c 73 18 3b 28 63 47 3e ea e4 c7 be
       -0.13936844 0.0023261933 0.19471419 -0.39041835
000030 53 f9 08 3f 2a 01 86 3e 95 45 d5 be db 22 91 3e
       0.5350544 0.26172763 -0.4165465 0.28346905
000040 a7 06 00 3c 1e 9f ed 3e 5d d6 b9 3d 79 5a b8 bd
       0.007814086 0.4641046 0.0907409 -0.09001631
000050 ea 6c 92 3e c0 86 1f 3e b4 de 37 3f 6b 2a 76 3e
       0.2859872 0.15578747 0.71824193 0.24039619
000060 cb 8f a4 3e 8f 4a 02 bd 18 f5 c2 3e 8a 03 1a 3e
       0.32140955 -0.031809386 0.38077617 0.15040413
000070 b8 7a 8f be 66 7d b3 3c b1 18 13 be 1e f3 73 3e
       -0.28023314 0.02191038 -0.14364888 0.2382321

bn3.running_mean f4 [32]
000000 58 64 e0 3e 9a 5e 0c 3f a9 cb e2 3e 16 cc c8 3e
       0.43826556 0.5483185 0.44296005 0.39218205
000010 5f e8 2f 3f 17 ca e5 3e ea 85 10 3f 35 7b 8a 3e
       0.68713945 0.44880745 0.56454337 0.27047125
000020 97 3d 28 3f 76 71 37 3f 6b f9 a3 3e 8d b0 ff 3e
       0.6571898 0.716575 0.32026228 0.49939385
000030 49 1c 91 3e 02 00 26 3f 62 ef 07 3f a7 ba c5 3e
       0.28341892 0.6484376 0.53099644 0.38618967
000040 aa 53 04 3f 7e 41 62 3e da 39 02 3f 93 b9 ff 3e
       0.5169016 0.22095296 0.50869524 0.4994627
000050 76 f8 c5 3e bc e3 dc 3e 9e 25 d4 3e 55 02 f1 3e
       0.38666123 0.43142498 0.4143495 0.47072092
000060 4a 35 b7 3e 62 13 b9 3e 98 c4 c1 3e f4 aa 25 3f
       0.35782844 0.361476 0.37845302 0.6471398
000070 5d c8 7b 3f a5 4e 43 3f b2 3f cf 3e b0 89 00 3f
       0.98352605 0.7629188 0.40478283 0.50210094

bn3.running_var f4 [32]
000000 74 50 05 3f d4 f9 0e 3f 5a 4c 8a 3f 71 ea cf 3e
       0.52075887 0.5584996 1.0804551 0.40608552
000010 0a 04 ef 3f c0 ef 88 3f 40 b6 4d 3f 80 7c cb 3e
       1.8673108 1.0698166 0.80356216 0.39743423
000020 27 b0 59 3f ea f5 4f 3f 8c 44 60 3f 0e 66 c5 3e
       0.8503441 0.8123461 0.87604594 0.38554424
000030 29 cd cc 3e 24 4a c7 3f 94 ed 36 3f 44 9e 23 3f
       0.40000275 1.5569501 0.71456265 0.6391337
000040 50 8a 0c 3f 32 31 94 3e c6 45 46 3f 40 cf b8 3f
       0.5489855 0.28943783 0.77450216 1.4438248
000050 2a 1b 39 3f c8 a1 51 3f 99 13 4a 3f 2d 1b f2 3e
       0.72307074 0.81887484 0.78936154 0.47286358
000060 ab ae 62 3f 34 ea e3 3f b5 59 02 3f bc ac 51 3f
       0.8854777 1.7805848 0.5091813 0.81904197
000070 f8 36 70 3f 47 75 70 3f 53 1e 8d 3e 23 f0 53 3f
       0.93833876 0.9392895 0.27562198 0.82788295

conv4.weight f4 [64, 32, 3, 3]
000000 05 ab 7a 3d f5 e8 33 3e 5a af c1 bc df b5 4f bd
       0.061198253 0.17569335 -0.023643184 -0.050710555
000010 73 a7 88 bc 20 95 2c 3d c2 b2 0c 3e 3b d9 57 3d
       -0.016681409 0.042134404 0.13740066 0.0526974
000020 c8 93 5d 3d 13 a9 35 be 08 5b a7 bc 77 56 5d 3d
       0.054096013 -0.17740278 -0.02042915 0.054037537
000030 e7 b0 86 bd d8 f4 22 3c 2a 65 a7 3d 9d c1 88 3d
       -0.0657671 0.009946071 0.081735924 0.06677554
000040 b4 db 00 3e 1d ab 29 be 12 f2 ce bb 1e 78 4b bc
       0.1258381 -0.16569181 -0.006315478 -0.012418775
000050 3c 0e 31 3e f3 8a d4 bd f8 5b 1d bd cc a0 61 bd
       0.17290586 -0.10378065 -0.038417786 -0.05508499
000060 6a be 0f 3e fd 2c 64 bb b3 6e 1d bd 97 90 3d 3d
       0.14037481 -0.0034816854 -0.03843565 0.04628047
000070 23 cb f6 3d 30 09 c7 bd ac c6 81 be 5d 8a 10 bd
       0.12050464 -0.09718549 -0.25346887 -0.035288204
000080 2d c3 92 be 2b 20 12 bd 44 1f 77 bc c4 5d da 3c
       -0.28664532 -0.03567521 -0.015083138 0.026656039
000090 38 eb 02 3e 1e ff 22 3e 92 f8 0d 3e ef b1 7a bb
       0.12785041 0.15917632 0.13864353 -0.003825303
0000a0 85 65 3f 3d 10 ec fb 3d 6c ed d7 3d db e2 f9 3d
       0.046727676 0.12300885 0.105433315 0.12201472
0000b0 48 cd 98 bd 89 c8 07 be 62 11 38 bd a9 12 92 bd
       -0.07461029 -0.13260092 -0.044938453 -0.071324654
0000c0 52 72 da 3c fd 1c dc bd 32 2d 37 bd 96 c0 79 bd
       0.02666584 -0.107477166 -0.044720836 -0.06097468
0000d0 c4 1b 63 be ad eb e3 bd 9d ed dd bd 11 40 fc bc
       -0.2217856 -0.11128936 -0.10836337 -0.030792268
0000e0 d0 f7 21 3d 4c d3 52 3c d9 d2 82 3d 2b 8d 15 3e
       0.039542973 0.01286776 0.06387872 0.14604633
0000f0 8a dd 08 3e 4a 1a 82 bd cb 25 ce 3b 51 e9 4e be
       0.1336576 -0.063526705 0.0062911264 -0.2020619
000100 50 6c ff bd 72 3a e5 3d a8 c0 23 3e ab ba c9 bc
       -0.12471831 0.11192788 0.15991461 -0.024625143
000110 79 6c 19 3e 1c 51 5c be 8e d3 5b 3d 6d 65 00 3e
       0.14982785 -0.21515316 0.05366855 0.12538691
000120 69 c8 be bd 63 bc 0a be ad fb f8 3c ea 1b 25 bc
       -0.09315569 -0.13548426 0.030393446 -0.010077456
000130 44 8d 4e 3d 85 fa c1 bc ee 19 9f 3c 3b 5e 09 be
       0.05042769 -0.023679027 0.019421544 -0.13414852
000140 72 b2 f7 bb 10 87 1b be 01 4e 05 be c0 d2 3c 3e
       -0.007559114 -0.15188241 -0.13018037 0.1843977
000150 81 8f b8 bd 42 a7 38 3e 13 22 96 3b 3f 9f 06 bd
       -0.09011746 0.18032554 0.0045816987 -0.032866713
000160 d7 75 86 3d ed e1 3f bc d7 6c 4c 3d db a7 7e 3c
       0.06565445 -0.01171158 0.049908485 0.01554295
000170 02 39 30 3e 0e 68 4e bd fe c4 1a be d3 00 00 be
       0.17209247 -0.050392203 -0.15114209 -0.12500314
000180 04 fb 85 be 94 dd d9 bd d2 65 4e 3e 08 10 18 bd
       -0.26168072 -0.10637966 0.20156029 -0.037124664
000190 06 8e 44 3c 4c 51 ec 3c ef 7a 55 3d aa 2f 8f 3c
       0.011996752 0.02884736 0.05211919 0.017478783
0001a0 00 ab 72 3d bc c8 4a 3e b7 66 ca 3c d3 48 88 3d
       0.05924511 0.19803137 0.024707181 0.06654515
0001b0 4f 0f 05 be 58 ed 07 3c 2c fa 1c be 6e ad 53 bd
       -0.12994121 0.008296333 -0.15329808 -0.051679067
0001c0 a3 f7 92 bd d5 90 1e 3d 01 bb 93 bd fc 8d ae bd
       -0.07176139 0.03871234 -0.072134025 -0.08523175
0001d0 3e d1 bf bd ac e1 3b 3e 67 ef e3 bd 64 3f cc 3c
       -0.09366082 0.18347806 -0.11129647 0.02493257
0001e0 92 b4 09 3e cf 2b 22 bc 04 eb c0 bd 3f c7 e2 bd
       0.13447788 -0.00989814 -0.09419826 -0.110731594
0001f0 b9 35 29 be 06 9b 02 3d 48 ea 1c 3d f4 2d c5 3d
       -0.165244 0.031886123 0.038309366 0.096279055
000200 55 3c 59 bd 0c b2 38 be 90 53 44 bb 15 7f 17 3d
       -0.053036053 -0.1803667 -0.0029957034 0.03698643
000210 ae cb c0 bb 1c 9d fb bd 67 e3 0c be 6d 0c f4 3d
       -0.0058836555 -0.122858256 -0.13758622 0.119164325
000220 a2 20 12 bd f0 21 59 be 24 d3 2c be ac fc 99 bd
       -0.035675652 -0.21204352 -0.16877419 -0.075188965
000230 c6 b8 8b bd ef 8c 6e bd fc bd 91 3d 81 09 6a 3c
       -0.06822352 -0.058239873 0.07116315 0.0142844925
000240 11 3b f6 bd 3a 9f 14 be 86 57 24 bd d2 53 71 bc
       -0.12022985 -0.14513865 -0.04012253 -0.014729457
000250 bd 32 d9 bc a1 60 f9 3c f2 99 44 3d 42 75 f9 bb
       -0.026513452 0.030441584 0.047998376 -0.007612855
000260 c4 8b 2d be 14 14 83 3d 33 d2 84 bd c3 81 3a 3d
       -0.16947848 0.06400314 -0.06485405 0.045533907
000270 79 a6 2e bd 44 79 a2 3c f7 46 6e 3d 05 6d 2f bc
       -0.04263923 0.019833215 0.058173146 -0.010707145
000280 26 ac 84 bd 74 53 f8 3b 2d 50 9f 3c a3 20 eb 3d
       -0.06478147 0.0075783078 0.01944741 0.11480834
000290 79 78 33 3e 19 83 b1 bd 65 21 cb 3c 8d 39 fa bd
       0.17526425 -0.08667583 0.024796197 -0.12218008
0002a0 06 9e 18 3e a2 14 76 be 69 12 c7 3d b9 a8 b9 bd
       0.14904031 -0.24031308 0.09720308 -0.090653844
0002b0 7f 06 1b 3d 20 93 cc bd c0 77 7b be a2 91 b6 bd
       0.037847992 -0.09988999 -0.245574 -0.08914496
0002c0 84 97 96 bd d5 51 e4 3d 7b cb fe bc d8 cb 0c be
       -0.07353118 0.11148421 -0.031102886 -0.13749635
0002d0 8e 53 26 bd 7d 8e 00 be c4 46 d1 3c c5 6e 8b bd
       -0.040607028 -0.12554355 0.025546439 -0.06808237
0002e0 9a 7f 80 be af 24 ba bd 31 ba b2 3d 7f c6 84 3e
       -0.25097352 -0.09089028 0.087269194 0.2593269
0002f0 b2 76 84 3c 3c cb a5 bc 50 96 d8 3d 4c 61 3d 3e
       0.01616988 -0.020238511 0.10575545 0.18494147
000300 c2 0c 0f be da a5 d7 bd 07 d7 6a bd 0a 37 f6 bb
       -0.1396971 -0.105296806 -0.057333972 -0.0075138854
000310 5e 02 11 3e c4 da bb 3c 49 e7 e2 bb db 66 27 be
       0.1416106 0.022931464 -0.006924544 -0.1634783
000320 9b bf 4c 3e bb 0b dd bd f8 ee 08 be 1d 41 6b be
       0.19994967 -0.10793253 -0.1337241 -0.22974057
000330 80 a5 17 be 2c a1 4b bd 33 60 41 3c 56 84 16 be
       -0.14809227 -0.049714252 0.011802721 -0.1469892
000340 7b 87 d5 3d e8 79 7a 3e 3f 52 9f 3c 8c 39 13 3e
       0.104262315 0.24460566 0.019448398 0.14377421
000350 cd e3 09 be 3a b7 0d 3c 0d e9 9e 3c 8b 4f f8 bd
       -0.13465805 0.008649642 0.019398237 -0.121245466
000360 ea 0c 84 3d a1 62 01 bc 4f 0e 88 3b 80 52 45 bd
       0.06447776 -0.00789705 0.0041520963 -0.04817438
000370 21 3a 65 be dc a7 94 bd 65 b5 04 be 01 e8 31 3d
       -0.22385456 -0.07258579 -0.12959822 0.043434147
000380 39 b3 f9 3d 00 19 93 bc 4c f8 92 bc f6 eb 72 3d
       0.12192387 -0.017956257 -0.017940663 0.05930706
000390 a7 92 0b 3e 42 c2 9f 3d f6 ef 5b 3d 1c ac 9c 3d
       0.13630162 0.078007236 0.05369564 0.07650015
0003a0 60 e3 09 3d 48 7d eb bd 7e 18 5a bd fe 44 99 be
       0.033664107 -0.11498505 -0.053246014 -0.2993545
0003b0 25 a4 15 3e 9b 04 98 bc b3 59 60 bd fe 47 fe bd
       0.14613397 -0.018556884 -0.054773044 -0.12416075
0003c0 8a ac f5 bd d8 b3 0b bd b5 48 25 3d d8 56 2a be
       -0.119958 -0.03410706 0.040352542 -0.16634691
0003d0 8d 62 e2 3d 25 e1 09 be a9 aa db bc b7 f5 ca 3d
       0.11053953 -0.13464792 -0.026814776 0.09910148
0003e0 3f 68 2f 3d 28 19 8f 3d bd 08 c4 bb 69 48 a3 bd
       0.042824026 0.0698722 -0.005982487 -0.079727955
0003f0 63 14 89 3d ba e7 d8 3c 5a 08 04 3e 30 44 eb 3b
       0.066933416 0.026477683 0.12893811 0.0071797594

conv4.bias f4 [64]
000000 86 2a 8e be b9 9b 8e be 21 47 06 be 66 99 89 be
       -0.27766818 -0.27853182 -0.13113071 -0.26874846
000010 af f5 b4 be 70 ce 87 be 8f d4 0d be 34 76 74 be
       -0.35343692 -0.26524687 -0.13850616 -0.23873216
000020 0b 4f a7 be 7d 21 07 be 7a 74 af be ea 2f be be
       -0.32677492 -0.13196369 -0.34268552 -0.3714593
000030 4b 76 ba be 50 df 30 be 53 ca af be 9d b6 55 be
       -0.36418375 -0.17272687 -0.3433405 -0.20870443
000040 e0 87 20 be e5 7a 3a be 1e 73 5f be 18 3e 6e be
       -0.15676832 -0.18210943 -0.21821257 -0.23265874
000050 51 c0 6b be 5c ac 6a be e6 ef e7 3b 40 b7 64 be
       -0.23022582 -0.22917312 0.0070781587 -0.2233553
000060 36 81 ae be 9f e4 93 be 23 09 ba be e8 e2 64 be
       -0.34082955 -0.28885362 -0.36335096 -0.22352183
000070 b8 38 53 be ef 87 9d be c7 a0 95 be 20 fa 7b be
       -0.20627105 -0.30767772 -0.29224226 -0.24607134
000080 53 17 21 be 90 59 57 be f7 7a 8e be a6 27 56 be
       -0.15731554 -0.21030259 -0.2782819 -0.20913562
000090 fc f1 b6 be f1 8d b5 be 9a c0 b8 be 8e b2 05 be
       -0.35731494 -0.35459855 -0.36084443 -0.13056394
0000a0 d5 cf 42 be 4a db e8 bd ac 93 6a be ae c6 99 be
       -0.19024594 -0.11369951 -0.22907895 -0.30034393
0000b0 c7 da f4 bd af 2a 02 3d f9 d0 3a be 17 c1 18 be
       -0.11955791 0.031778987 -0.18243779 -0.14917408
0000c0 95 67 8f be 99 5a be be 52 7e 0a be 35 50 45 be
       -0.28008714 -0.37178496 -0.1352475 -0.19268878
0000d0 06 c8 f8 bd 01 6c fd bd 8b fb 59 be 5a 29 bb be
       -0.121475264 -0.12374116 -0.21287362 -0.36554986
0000e0 18 b7 75 be 03 43 32 be 5e 0f 4d be 5f dd 84 be
       -0.23995626 -0.17408375 -0.20025393 -0.25950143
0000f0 15 55 1a bd ef 2d b0 be 4c 1e a6 be ec f2 4a be
       -0.037678797 -0.34410045 -0.3244499 -0.1981923

bn4.weight f4 [64]
000000 f5 a8 b8 3f 6d 6a ce 3f 76 8c a9 3f e5 fd a1 3f
       1.4426562 1.6126229 1.324599 1.2655607
000010 b8 e7 b3 3f 54 f9 ba 3f 71 d6 bb 3f b1 b3 a1 3f
       1.405509 1.4607339 1.4674817 1.2632962
000020 f6 26 d2 3f 8d 82 94 3f 45 88 c4 3f 97 ef b0 3f
       1.641814 1.1602341 1.5354086 1.3823117
000030 8d 06 cb 3f 9c 7e af 3f 21 da a0 3f 06 47 a6 3f
       1.5861374 1.3710513 1.2566568 1.2990425
000040 44 d8 b8 3f a3 cf b4 3f 7d c7 de 3f 23 fd 9e 3f
       1.4440999 1.4125866 1.7404629 1.2421001
000050 b5 51 89 3f c5 1e bf 3f 03 8a a9 3f a0 ee ce 3f
       1.072806 1.4931265 1.3245243 1.6166573
000060 bb 64 af 3f e0 61 bd 3f 50 b7 c2 3f 1d a1 b6 3f
       1.3702615 1.4795494 1.5212193 1.4267918
000070 59 5b 93 3f c1 5f cc 3f 5b 57 d5 3f 85 e3 a6 3f
       1.1512252 1.5966722 1.6667284 1.3038183
000080 63 77 92 3f ce 2c c4 3f 98 e7 aa 3f 3a 41 c1 3f
       1.1442684 1.5326173 1.3351927 1.509803
000090 57 e4 aa 3f c2 84 b8 3f c8 5a b5 3f cf 87 8a 3f
       1.3350934 1.4415514 1.4168329 1.0822695
0000a0 4c 0a c1 3f 03 dd ce 3f 62 0a 9e 3f f1 6c e4 3f
       1.5081267 1.6161197 1.2346919 1.7845746
0000b0 6a 69 b4 3f 19 0b 9d 3f 8c cc b3 3f ab 91 a2 3f
       1.409467 1.2269012 1.4046798 1.2700704
0000c0 1f b6 a6 3f 0d 2b b0 3f 67 39 8d 3f 12 b6 a6 3f
       1.3024329 1.3763138 1.1033143 1.3024313
0000d0 38 39 a5 3f 2a 2c be 3f 5e 38 c7 3f 26 9f db 3f
       1.2908087 1.4857228 1.5564077 1.7157943
0000e0 d1 2a af 3f 49 7e a2 3f 2c 27 db 3f 79 3c 9a 3f
       1.3684942 1.2694789 1.7121329 1.2049705
0000f0 ff 4d 96 3f 42 80 fc 3f 8c fe d9 3f fe a8 8b 3f
       1.1742553 1.9726641 1.7030807 1.0910947

bn4.bias f4 [64]
000000 ff 14 23 3e de 7a c5 3d 68 c3 bb 3d c9 5b 0e be
       0.15925978 0.09642576 0.0916813 -0.13902201
000010 c3 1e d1 bd f2 a0 b6 3d 12 ef 2a 3e 21 cb c6 3d
       -0.102109455 0.08917417 0.1669276 0.097067125
000020 d0 6e b3 3d 9e bf c9 bd 83 e3 e5 bd 7d 01 f2 bd
       0.0876137 -0.09851001 -0.11225035 -0.1181669
000030 46 c0 3b 3e 0c 6c 29 3e 10 b4 37 be 0f 04 f1 3d
       0.18335065 0.16545123 -0.17939782 0.11768352
000040 e5 00 61 3e 49 a7 2f be 6c 2c 43 3e 64 e0 1f be
       0.21972997 -0.17153658 0.19059914 -0.15612942
000050 27 94 e1 bd 23 a5 eb 3d a9 00 53 3e 23 17 0a 3e
       -0.11014586 0.11506107 0.2060572 0.13485388
000060 89 0c c8 bd df 31 01 be 50 ce d5 bd e2 ae ba 3d
       -0.09768016 -0.1261668 -0.104397416 0.091153875
000070 8a a9 e2 bd dd 62 48 3e f1 c3 c2 bd 00 09 bc bd
       -0.11067493 0.19568963 -0.09510029 -0.09181404
000080 76 5e 43 be 9f da 08 3e 1f 40 83 3e 06 d3 44 3e
       -0.19079003 0.13364647 0.25634858 0.19221124
000090 10 85 03 be db 09 13 3e 04 bb c7 bd d1 ce 26 be
       -0.12843728 0.14359228 -0.09752467 -0.16289832
0000a0 d1 4c f5 bd 05 e5 cc 3d 42 fb ea bd de fd e7 3d
       -0.11977542 0.100046195 -0.11473705 0.11327718
0000b0 05 20 0e 3e cb f0 bc 3d 0b a3 21 3e f8 37 1e 3e
       0.13879402 0.09225615 0.15784852 0.15451038
0000c0 ca 1d d8 3d 8b af 33 be 3e ec e4 bd 4e 1c e8 bd
       0.10552557 -0.17547433 -0.11177872 -0.11333524
0000d0 2c 75 06 3e 48 22 e8 3d fe 7f be bd aa 19 32 be
       0.13130635 0.11334664 -0.09301756 -0.17392603
0000e0 87 05 10 3e 14 ea bf bd ed c9 f5 3d 6a 09 fe bd
       0.14064609 -0.09370819 0.12001405 -0.12404139
0000f0 12 e8 ee 3d e3 6d 3b 3e 1e 65 28 3e f5 95 0b be
       0.11665358 0.18303637 0.16444823 -0.13631423

bn4.running_mean f4 [64]
000000 fb a4 00 3e 7a 6b 9f 3d 95 47 5a 3e 9e af 70 3d
       0.12562935 0.077841714 0.21316369 0.05876123
000010 0c 19 19 3d f8 a5 71 3d fd 22 7c 3d 91 80 a6 3d
       0.037377402 0.05899617 0.061556805 0.08129991
000020 5d 80 f4 3c d4 47 9f 3e cc 3a a8 3c ae 3f 55 3d
       0.029846365 0.31109488 0.020535849 0.052062683
000030 22 81 15 3d 27 db 54 3e e3 93 c5 3d e9 e5 be 3e
       0.036500104 0.20786725 0.09647348 0.37284783
000040 ad ad 92 3e 3c c0 42 3d c2 0a 21 3d f8 ae 00 3e
       0.2864813 0.04754661 0.0393169 0.12566745
000050 e3 d4 1d 3f 0f 2d ec 3d 79 66 1a 3f 14 bf 8b 3e
       0.61652964 0.11532032 0.6031261 0.2729422
000060 5a 9f 83 3d ce 62 89 3d 92 6b 05 3d 4c 15 69 3e
       0.06426878 0.067082986 0.03257329 0.2276203
000070 6c 35 85 3e 47 d3 ea 3c 74 34 23 3d 73 da f5 3c
       0.2601732 0.028665198 0.039844945 0.030011391
000080 8e 90 0d 3e 10 09 ed 3d d7 0a 04 3e cf b3 30 3d
       0.13824674 0.11573994 0.1289476 0.04314023
000090 74 37 69 3c 6d 11 10 3d 3b 3f bc 3c ed 20 e1 3e
       0.014234412 0.03517287 0.02297937 0.43970433
0000a0 2d 31 ff 3c 64 77 1e 3e e1 4a 5e 3d c4 36 1c 3d
       0.031151379 0.15475231 0.05427063 0.038138166
0000b0 6a f5 95 3e 66 cd 5c 3f 9a 15 ee 3d 89 0e 9d 3e
       0.292888 0.86250913 0.11625214 0.30675152
0000c0 43 ab 37 3e d1 68 92 3d 95 09 19 3f c7 94 74 3e
       0.17936425 0.071488984 0.59780246 0.23884879
0000d0 f9 0c d8 3e 5f ae c7 3e 43 d3 16 3d 3c a0 cc 3c
       0.42197397 0.39000222 0.03682257 0.02497875
0000e0 71 cc 8c 3d 15 fa 69 3d 92 b4 10 3e 0a 2a fa 3d
       0.068749316 0.057123262 0.14131382 0.122150496
0000f0 79 7b 23 3f 57 47 76 3d 2a 31 89 3d 46 b1 17 3f
       0.6386028 0.06012663 0.066988304 0.5925487

bn4.running_var f4 [64]
000000 99 5a 3d 3e 67 da ce 3d 4f 61 9a 3e ac a4 9c 3d
       0.18491592 0.10100251 0.30152366 0.07648596
000010 0e 6e 63 3d 6f 4c a2 3d c2 4a ae 3d e4 5f 05 3e
       0.05552488 0.07924735 0.08510353 0.1302486
000020 89 67 22 3d c5 bd 41 3f c2 e9 fc 3c 08 0c ca 3d
       0.03964952 0.7568019 0.030873183 0.09865576
000030 3a df 8b 3d ef 5b 9c 3e 85 fa 3d 3e 39 83 0a 3f
       0.068296865 0.3053889 0.18552597 0.5410648
000040 11 df c2 3e 40 62 85 3d da e6 28 3d 16 d1 58 3e
       0.3806081 0.0651288 0.041235782 0.2117351
000050 39 21 da 3f ce db 3d 3e fe 86 5a 3f 4b f4 0f 3f
       1.7041389 0.1854088 0.8536223 0.56232136
000060 a3 50 f4 3d 8a 54 c2 3d 96 3f 43 3d 2f b8 90 3e
       0.11929443 0.09488781 0.047668062 0.2826552
000070 c1 1e 13 3f ed fa 30 3d ac 74 8d 3d 85 7e 28 3d
       0.574688 0.04320805 0.06907019 0.041136283
000080 55 1e 70 3e 8e 2e 1d 3e 34 ce 41 3e 6d 30 62 3d
       0.23449071 0.1534979 0.18926316 0.055221964
000090 d3 9a ac 3c d9 c3 30 3d e7 7c 06 3d 26 1b 8e 3f
       0.02106992 0.043155525 0.03283396 1.1102035
0000a0 6e 32 ec 3c 69 e7 57 3e 58 66 97 3d 5b ae 7f 3d
       0.02883264 0.2108437 0.073925674 0.062422138
0000b0 00 26 c3 3e 0c fb 9d 3f d2 0c 24 3e aa 48 d4 3e
       0.3811493 1.2342238 0.16020516 0.41461688
0000c0 05 65 86 3e 87 45 eb 3d a2 fa ce 3f d3 24 c3 3e
       0.26248947 0.11487871 1.6170237 0.38114032
0000d0 6c 84 15 3f 6b 15 fd 3e e9 7b 62 3d 87 90 07 3d
       0.58405185 0.49430403 0.05529395 0.033096816
0000e0 a5 87 ad 3d 4c 2a 92 3d 32 40 3f 3e 32 63 6d 3e
       0.08473138 0.07136974 0.18676832 0.23182371
0000f0 50 16 1b 3f 5d 73 c4 3d 3d d2 b1 3d 93 e0 d0 3f
       0.6058092 0.09592316 0.08682678 1.6318535

lin.weight f4 [2, 64]
000000 73 77 b2 be 4c 2c 3a bf be e6 f6 be a6 4e 03 3f
       -0.34856758 -0.7272384 -0.48222917 0.51291883
000010 e2 3d 0e 3f fd 0b d8 be 4f 66 c8 be 78 35 a5 be
       0.55563176 -0.42196646 -0.39140555 -0.32267356
000020 07 56 29 bf 71 32 b1 3e 86 e5 28 3f dc c0 1c 3f
       -0.6614689 0.34608796 0.65975225 0.6123178
000030 de 03 0d bf b2 94 1c bf f6 3d fd 3e 07 36 ce be
       -0.55084026 -0.6116439 0.49461335 -0.40275595
000040 e5 57 0e bf 93 2f 25 3f 69 f2 23 bf 52 24 b1 3e
       -0.55602866 0.6452572 -0.64041764 0.34598023
000050 71 22 82 3e 2e 4e 1f bf a1 45 9d be e9 20 3d bf
       0.25416902 -0.6222867 -0.30717185 -0.7387834
000060 af 31 0e 3f 38 dd 29 3f 2c ec 24 3f 31 b3 09 bf
       0.5554456 0.6635318 0.6442287 -0.5378905
000070 fe 7e af 3e 33 24 fb be f4 be 41 3f 0f 3f 0a 3f
       0.34276575 -0.49051055 0.75681996 0.5400247
000080 1d 87 b5 3e 73 14 15 bf b4 b6 39 be 4b 16 16 bf
       0.35454646 -0.5823433 -0.18136102 -0.58627766
000090 b8 87 24 3f 24 cc b0 be b9 61 05 3f 02 12 23 3e
       0.6426959 -0.34530747 0.5210224 0.15924838
0000a0 ba 4a 1d 3f 70 ea 39 bf 70 54 db 3e d2 86 45 bf
       0.6144215 -0.7262335 0.42837858 -0.77158844
0000b0 bc 37 df be b1 0c dc be f1 e8 e9 be 77 b3 d4 be
       -0.4359721 -0.42978433 -0.45685533 -0.4154317
0000c0 5b 31 dd be 06 36 28 3f 34 a8 64 3e 5c ac d0 3e
       -0.43201718 0.65707433 0.2232979 0.407565
0000d0 fa b1 de be f8 26 02 bf 5b bd 47 3f 94 24 63 3f
       -0.4349516 -0.5084071 0.7802331 0.8872769
0000e0 29 90 ec be e6 d1 07 3f e3 38 33 bf ee 08 d6 3e
       -0.46203735 0.53054655 -0.7000868 0.41803688
0000f0 f4 51 d5 be a6 f9 3b bf 7f 5d 0b bf 77 ad 9f 3e
       -0.41664088 -0.7342781 -0.5443954 0.3118703
000100 97 52 f5 3e 6c 31 2f 3f 6f 67 f2 3e 87 b3 cf be
       0.47914574 0.68434787 0.4734454 -0.40566656
000110 59 87 0d bf 1e 7c fc 3e fc bb ea 3e f5 0f b0 3e
       -0.5528465 0.49313444 0.45846546 0.34387174
000120 43 cd 1e 3f ab 70 d1 be f8 6c 39 bf 58 7d 1a bf
       0.62031955 -0.4090627 -0.724319 -0.6034751
000130 15 af ae 3e 9c 6e e5 3e dc 66 c1 be 2f 98 91 3e
       0.34117952 0.4481095 -0.37773788 0.2843642
000140 59 13 0d 3f 79 35 01 bf eb 21 f8 3e 24 de d4 be
       0.5510765 -0.5047222 0.48463377 -0.4157573
000150 06 ad 72 be 2f 75 04 3f 42 4e a1 3e f2 fe 25 3f
       -0.23698816 0.5174131 0.31505018 0.6484214
000160 5a 64 10 bf d7 c3 26 bf 29 aa 3e bf e1 fd 0a 3f
       -0.56403124 -0.6514258 -0.74478394 0.5429364
000170 e8 67 82 be 62 4e c6 3e 0a 84 48 bf 43 6e f5 be
       -0.254699 0.38731676 -0.78326476 -0.47935686
000180 05 6a 69 be ae d0 03 3f 41 21 c3 3e 66 62 30 3f
       -0.2279435 0.51490295 0.38111308 0.68900144
000190 f9 16 00 bf 88 55 ee 3e a6 08 18 bf 34 b8 8f be
       -0.50035053 0.4654963 -0.59388196 -0.28070223
0001a0 f6 25 1a bf 4e a2 22 3f 42 e6 db be e2 d8 27 3f
       -0.60214174 0.6352891 -0.4294911 0.6556531
0001b0 0a 7b 0e 3f a0 32 d0 3e 44 ee 1f 3f c8 d9 17 3f
       0.5565649 0.40663624 0.6247294 0.5931668
0001c0 ad 97 10 3f 74 33 03 bf 0a 67 90 be 64 ea 08 bf
       0.5648144 -0.51250386 -0.28203613 -0.5348265
0001d0 bf 54 d6 3e ca b8 11 3f 7b 4a 44 bf d3 a1 74 bf
       0.4186153 0.5692259 -0.7667615 -0.95559424
0001e0 5f 39 b6 3e 30 1c 0c bf 71 5c 18 3f 06 40 cd be
       0.35590646 -0.5473051 0.59516054 -0.40087909
0001f0 8e 38 ac 3e 2b 95 1f 3f a1 8d 0a 3f 8f 92 30 be
       0.33636898 0.6233699 0.5412236 -0.17243408

lin.bias f4 [2]
000000 95 44 08 bd 89 ec 0c 3e
       -0.03326853 0.13762106
