classifier/model.pt (torch, 111800 bytes, 50 tensors)

conv1.weight f4 [8, 1, 5, 5]
00000000: 7223 11be eaeb d73e ee7c d73e 82fd f73e
00000010: b145 0dbe 3e64 8abe ad37 93be 6373 39be
00000020: 0052 0ebf 0e9c d63c ddf2 0d3f 46be f03d
00000030: fa12 7abe 4853 433d 98cd 43be 869c ccbc
00000040: 7172 393e d76b 173f 7395 783e 478e a43e
00000050: c643 363d 025a 20be aa44 92be 5697 9bbd
00000060: c0f2 47bd 755e 263f f841 473e 9807 a23e
00000070: 84dc 133f 8c47 193f 4cf1 bc3e 8587 133d
00000080: 118c e13d 4558 0a3f e9b6 273f 944d 7dbe
00000090: 2543 373e d97c 82bd ecd8 2d3c 773e aebe
000000a0: ac3a 92be 17f0 ec3d 9b84 bcbd 80f9 1c3e
000000b0: 6d9e 0bbe c140 da3d 6ef2 9b3e 2a2a adbd
000000c0: 8de8 0bbf 1deb e63e 8ca5 e43e b0c2 cb3e
000000d0: e450 1cbf a7dc 853d 949d efbd 83fe b23e
000000e0: 4bf0 23bd b3b0 8f3e 69bb 493b fdc8 c53e
000000f0: 0276 933d a19a 8dbe 4ef4 b4be 5874 bdbe
00000100: 7ee6 adbe 508f dcbc be74 0fbf 886d 093e
00000110: a5c8 93be 823f 35bd f6be 733e 60d8 bd3e
00000120: e68d 6c3f 3bca 0f3f 4061 743e d48c e1be
00000130: f39d f5be 09c2 fcbd 375d 1bbd 9c23 b0be
00000140: 0066 e7bd 52ec db3e fc1f ccbd 9339 2e3e
00000150: 69d5 c4bd 3331 153f 1459 543d f55c 373c
00000160: fa34 b9be fdaa 04be 567a 35bd 6560 6abe
00000170: 31d4 85be fc01 98bc bad9 cfbd 348d 96bd
00000180: 211a fdbe 2beb f2be ba04 0dbe e2fb 2f3c
00000190: 57aa 993e 21ea bf3e 0407 533e db30 ee3e
000001a0: 0fc1 9b3e 5570 debe 8e1d a83d baf1 c33d
000001b0: a9e6 483e 48ad 9b3e e78e e9bd 36a1 22be
000001c0: 5ab0 383e bff8 9f3d ba5a 73be 1268 5f3d
000001d0: 57e1 2abe c312 7fbe 6455 2cbe 1eca 91be
000001e0: 2c3c d7b8 bab1 90bd 8a96 babe 49b1 903c
000001f0: b34b e0bd 634b 773d 1dda 99be 543c ae3e
00000200: 00ec 4a3d 8822 eabe 636c bfbe b17a 8fbc
00000210: 5d12 813e df4b 16bf 3a94 7cbb a2e5 5d3e
00000220: 71c7 87bc 47d8 603e 4621 a53e 5b0d bb3e
00000230: bd10 c0be 6e6b 5cbe c62f 483d 05a4 1abf
00000240: 8ebf 3fbf 17ca a33b 3d22 b9bd 7142 c2be
00000250: 044e a0be 3277 aabe 92aa 3d3e 14b2 65be
00000260: a6df c339 f7ef dabd 4f39 2cbe ac04 123b
00000270: 976c 483d ea71 253e 00d5 0c3c 29e6 ef3d
00000280: fb5d e23e 7b20 e73e a0fd 453f f95c 6c3f
00000290: ffd8 793e 4cb9 4d3e 6a02 b2be 796c 403e
000002a0: 2a79 6dbe fe64 82be b0e7 1cbe 3b9d 4e3e
000002b0: 9384 30bf 11b5 89be 911a a2bd 5d45 1dbe
000002c0: f6d9 6fbe 8bae a1be 67f4 95be 1209 293e
000002d0: 6735 8cbd 50e2 173e 62f4 93be c382 30bd
000002e0: 4869 d53e 60c7 8ebe 9e82 07bf b2ce cbbd
000002f0: 183f 013f 1d57 2c3e b3ae 513e a6c1 573e
00000300: 7af3 9abd f8c8 c63e 1593 f53d 22c4 05bf
00000310: 4b7f e7be 84bd abbd 8d85 0c3d ec3e 9c3e
-0.14173678 0.42172176 0.420875 0.484356 -0.13796116 -0.27029604 -0.28753415 -0.18110423
-0.5559387 0.02619746 0.55448705 0.11755042 -0.24421301 0.047686845 -0.19121397 -0.02497698
0.18110062 0.59148926 0.2427576 0.321398 0.044498228 -0.15659335 -0.28568012 -0.075972244
-0.04881549 0.6498788 0.19458759 0.3164642 0.57758355 0.59874797 0.36902845 0.036017913
0.11013044 0.5404094 0.65513474 -0.24736625 0.17896707 -0.06371469 0.0106108 -0.34032032
-0.28560388 0.11569231 -0.0920498 0.15329552 -0.13634653 0.10656882 0.30458397 -0.08455308
-0.5465172 0.45101252 0.44657552 0.39796972 -0.6106093 0.06536227 -0.116999775 0.34959802
-0.040024083 0.28064498 0.0030781871 0.38629904 0.072002426 -0.27657035 -0.3534264 -0.37002826
-0.33964914 -0.026923805 -0.5603751 0.13420689 -0.28864017 -0.04425002 0.23803315 0.37079144
0.9240402 0.56167954 0.23865223 -0.44052756 -0.47972068 -0.12341697 -0.037930693 -0.34402168
-0.11298752 0.42953736 -0.09967038 0.1701415 -0.09611017 0.582782 0.051842764 0.011191596
-0.3617323 -0.12955852 -0.04430612 -0.22888334 -0.26138452 -0.018555634 -0.1014895 -0.07351151
-0.49433997 -0.47445044 -0.13771334 0.010741206 0.3001277 0.37483314 0.20608145 0.4652165
0.3042073 -0.43445078 0.08208762 0.0956759 0.1961924 0.3040564 -0.114042096 -0.1588181
0.18036023 0.078111164 -0.23765078 0.05454261 -0.16687523 -0.24909501 -0.16829449 -0.28474516
-0.00010263207 -0.07065149 -0.36442977 0.017662661 -0.109519385 0.06037463 -0.3004922 0.34030402
0.049541473 -0.4572947 -0.3738738 -0.017514559 0.25209323 -0.5870952 -0.0038540498 0.21669629
-0.016574593 0.21957503 0.32251948 0.36533627 -0.3751277 -0.21525356 0.048873685 -0.60406524
-0.74901664 0.004998456 -0.090397336 -0.37941316 -0.3130952 -0.33294064 0.18522099 -0.22431213
0.0003735993 -0.10690301 -0.16818736 0.0022280617 0.048931684 0.16156736 0.008595705 0.117138214
0.44212326 0.45141968 0.77340126 0.92329365 0.24399184 0.20090216 -0.34767467 0.18791379
-0.23190752 -0.25467676 -0.15322757 0.20177166 -0.6895229 -0.26895955 -0.079152234 -0.15358491
-0.23422989 -0.31578478 -0.29288027 0.16507366 -0.06846123 0.14832425 -0.28897387 -0.043093454
0.41681886 -0.27886486 -0.5293368 -0.099515334 0.504869 0.16830106 0.20476799 0.21069965
-0.07565971 0.38825202 0.11990944 -0.522524 -0.45214304 -0.083857566 0.03430705 0.30516756

conv1.bias f4 [8]
00000000: c686 ad3c 4b82 19bd 490f 8cbe 71cb 4bbd
00000010: 3738 e93d f407 a93e 614d d1be eb01 84be
0.021182429 -0.037477773 -0.27355412 -0.049754564 0.11387675 0.3301388 -0.40879348 -0.25782713

bn1.weight f4 [8]
00000000: 819c 593f ca72 8a3f 5b2f 6c3f f500 7d3f
00000010: b560 7d3f 4b59 7d3f e30f 933f 80cb 763f
0.8500443 1.0816281 0.9225976 0.98829585 0.9897569 0.98964375 1.1489223 0.96404266

bn1.bias f4 [8]
00000000: 4cdc 833d 5d48 e4bb 18b1 973e 0eae 74bd
00000010: d0fb 6f3c bceb 4e3d 860e f7bd c9e5 87bd
0.06438503 -0.006966634 0.296273 -0.059736304 0.014647439 0.050517783 -0.12063317 -0.06635625

bn1.running_mean f4 [8]
00000000: 1d86 2b40 10e3 0d41 bf77 a140 c388 3842
00000010: 2ffd ba40 5970 4942 4ef3 aa40 713e 5441
2.6800606 8.867935 5.0458674 46.133556 5.843406 50.359715 5.3422003 13.2652445

bn1.running_var f4 [8]
00000000: 9e09 3342 b12a f343 266e 1043 61d6 e544
00000010: 5e08 e742 b117 0545 6d87 1f43 5cf8 4c43
44.75939 486.33353 144.43027 1838.6993 115.51634 2129.4807 159.529 204.97015

conv2.weight f4 [16, 8, 3, 3]
00000000: 711f 16be 23cb 89be 1a28 d0be 00c4 7ebe
00000010: 890e d0be aad5 abbe 2986 cdbd 6ae5 e9bd
00000020: 4598 9dbb aab1 8ebd 49e7 e8bb 30fe 5ebe
00000030: afa8 3abe 3a51 4c3c c999 733d c327 873e
00000040: 4646 3d3e 9e57 763e dbb8 32bd a2ee ccbd
00000050: 3e7e 0dbe e607 8abd 4403 9c3d 5657 8e3d
00000060: b930 53be d125 843d 70be a2bd 476a a6bd
00000070: ce1f 3cbd 086e 733d e329 603d dc1e f03c
00000080: 83d3 d6be c910 59be f7e8 12be e60d 0ebe
00000090: 321d 73be 0a71 85bc 28ff 193d ce70 423e
000000a0: d3f4 aebd 8ab1 7ebe d2df 90be 8a87 11bf
000000b0: 1cd6 ebbe c578 023f c56d 073e b08b 613e
000000c0: 8cef 3cbe d70e 08be 1bc5 11be 7354 ddbd
000000d0: d4bf 2b3e 3963 3bbe f232 aa3d 2940 72bd
000000e0: b5ef a93e 16a1 0dbe 65ab 2abe 5da3 c4be
000000f0: 07f3 90bd cb5f eebd 941b b0be 59a0 b13d
00000100: f6f5 cbbd 3fb6 b23b a577 623d ad36 68bd
00000110: 58e4 16be b8e6 353e 3ed4 f63d 25f5 6ebc
00000120: f025 673e c8c2 abbe cc14 f13d d72a 253d
00000130: 0f70 1dbe 564c 463b 42a2 943e 4ccd c03d
00000140: 86b8 b7bb 2217 963c 28a6 13be 2727 963d
00000150: 0793 1e3e 3c49 f53d 0608 3dbe be8f 0a3e
00000160: 6f57 1c3e 9608 543e 8710 5c3e cf70 b2bd
00000170: bd14 b9bd 6a13 733e ee81 793d 8011 a0bd
00000180: b613 533c d0c4 c0ba 034f 8a3c e86c c93d
00000190: e356 283e e4bd f53b 7e45 3e3e ed2e 1d3e
000001a0: eed7 693e 7b4a 803d 3279 a53d 8c78 02bd
000001b0: 0af1 973d 2463 be3d 3f57 8a3d dce7 cbbd
000001c0: ce60 65be 0cb4 4dbe f28b 953e 5b46 88bd
000001d0: 2e26 3c3e dca4 1ebd cf9e 52be a3ae b4bd
000001e0: 15b1 d1bc 5646 1c3d 0145 3cbd 3aa9 943e
000001f0: 2dd3 5a3e f1cd 08be 91c5 89be 7893 01be
00000200: 85e2 e8bd 597c b73d 008b 9d3e cb3a d33e
00000210: 3747 31bd 036c 2abe e5f0 68bd ad31 6e3d
00000220: 7bd3 87be 9033 c1bc 4f81 83be a0af 1e3e
00000230: 4d96 34be 1547 113e f5d9 13be 9c1b 07be
00000240: 2def e73d 3dce d03d 7377 1dbb 2d11 d7bd
00000250: 3fa5 99be e1ce e2be b226 86be 3455 3d3d
00000260: 0c78 b6bd fccc 753e 1174 0dbe db0c 8f3c
00000270: ce56 a5bd b939 403e 0cf6 10be cecc dcbd
00000280: a263 80be f715 27be 92e7 2fbe 032c 32be
00000290: d0b9 cebd 1e6c 34bd 3938 263d 110c 47be
000002a0: c0da 2ebe 82ef a93d a223 543e 2603 ffbb
000002b0: 1897 8e3e b367 e93d b81a 09be 3fb7 c13d
000002c0: 016c cdbc 6204 9e3e e100 8c3c 9131 a7bd
000002d0: 7648 9bbe ef06 c6be 0109 70be ca7f c5bc
000002e0: 1df4 a4bd 4220 9d3d 336b fe3c 02f9 2f3e
000002f0: 09dc 84be 499b 4b3d 77fa 053e 2f1c b9bd
00000300: 84e3 bbbe 46e4 41be a858 03bc 373d 0bbd
00000310: 1a2f 7cbe a6c8 ecbd 5651 0d3e 4767 53bd
00000320: 693f c8bc c64e 893e a149 093e 01ed 59be
00000330: 69d4 f73d dfd6 edbb 686b 2abe 0a16 07be
00000340: b5c3 28bd cb12 d23d d635 03bf 8ac5 9dbe
00000350: 80d4 c23d c6a1 09be 24b3 adbe 2e47 22be
00000360: e86d 41be 143a 93be cc92 bb3b 2e5c da3c
00000370: 2180 4a3e 9d9e 07be a504 40be b78b a4be
00000380: 7576 59be 8ff2 823e 350b 913d 2bee 1bbd
00000390: 6760 82be f045 113d bc2f 1b3e c489 8a3e
000003a0: 3da4 b03d 1977 c5bd c82c cfbc 996d 52be
000003b0: 4ee1 51be d202 29be 6ed0 d4bd bbee b63e
000003c0: b6dd 82bd c7b3 02bd 6c1d b9bd ef45 6ebd
000003d0: 53bd 79be 19ba b7bd d4d0 62bd 0ed9 233d
000003e0: 981d 2fbd e40c ce3d d71d e33d 7e42 0abe
000003f0: 1dee e33c 7b6f 523d 6839 153d 67a4 4fbe
-0.14660431 -0.26912794 -0.40655595 -0.24879456 -0.4063609 -0.3356145 -0.10035355 -0.114207104
-0.0048094117 -0.069674805 -0.0071076495 -0.21776652 -0.1822841 0.012470538 0.059472833 0.26397523
0.18483838 0.24056861 -0.043633323 -0.10006453 -0.13817689 -0.06739788 0.0761781 0.06950252
-0.20624055 0.064525254 -0.07946479 -0.081257395 -0.04592877 0.059431106 0.054727446 0.02931159
-0.41958246 -0.2119781 -0.14346682 -0.1387249 -0.23741606 -0.016289253 0.03759685 0.18988344
-0.0854279 -0.24872413 -0.2829576 -0.5684744 -0.4606179 0.5096553 0.13225468 0.22025943
-0.18450755 -0.13286911 -0.14235346 -0.10807123 0.16772395 -0.18299569 0.08310498 -0.05914322
0.33190694 -0.1383098 -0.16666944 -0.38405886 -0.07077604 -0.11639365 -0.3439604 0.08673162
-0.09959023 0.0054538543 0.055289883 -0.056692768 -0.14735544 0.17763793 0.12052201 -0.014584814
0.22573066 -0.33547044 0.11771545 0.04032406 -0.15374778 0.0030257902 0.29030043 0.09414157
-0.0056067137 0.018321577 -0.14418852 0.073316865 0.15485774 0.11976859 -0.18460092 0.13531396
0.15267728 0.207064 0.2149068 -0.08712923 -0.09037159 0.23737875 0.060914926 -0.07815838
0.012883117 -0.0014707092 0.016883379 0.09835225 0.16439395 0.0074994434 0.18581197 0.15349932
0.22836277 0.06264206 0.08079757 -0.031853244 0.074190214 0.09296253 0.06754922 -0.09956333
-0.2240021 -0.20088214 0.29208332 -0.06654044 0.1837394 -0.03873144 -0.20568393 -0.08822372
-0.025597135 0.038153015 -0.045964245 0.2903536 0.2136962 -0.1335981 -0.26908544 -0.12653911
-0.1137133 0.08959264 0.3077011 0.41255793 -0.043280806 -0.16642766 -0.05687036 0.058152843
-0.26528534 -0.023584157 -0.25684592 0.15496683 -0.1763546 0.14187272 -0.14438613 -0.13194126
0.11324916 0.10195587 -0.0024027496 -0.10501323 -0.30008885 -0.4429846 -0.26201397 0.046223834
-0.08909616 0.24003977 -0.13813807 0.017462185 -0.08073197 0.1877202 -0.1415636 -0.10781251
-0.25076014 -0.16316973 -0.17178181 -0.17399602 -0.10094035 -0.04404842 0.04058096 -0.19438197
-0.17075634 0.082976356 0.20716718 -0.0077823577 0.2784965 0.11396732 -0.13389099 0.094587795
-0.025075914 0.3086272 0.017090263 -0.08163751 -0.3032872 -0.38677165 -0.23440935 -0.024108786
-0.080543734 0.07672168 0.031056976 0.17184833 -0.25949124 0.04970864 0.13083826 -0.09038579
-0.36697018 -0.18934736 -0.008016743 -0.033993926 -0.24627343 -0.11561708 0.13800558 -0.051612165
-0.024444299 0.26817912 0.13406993 -0.21281816 0.12101061 -0.0072582806 -0.16642535 -0.13192001
-0.041202266 0.10257491 -0.5125402 -0.30814773 0.095131874 -0.13440618 -0.33925736 -0.15847465
-0.18889582 -0.28755248 0.0057242867 0.026655283 0.1977544 -0.132441 -0.18751772 -0.32137844
-0.21236594 0.25575683 0.07082216 -0.03806893 -0.25464174 0.03546709 0.15154928 0.27058232
0.08625076 -0.09641857 -0.025289908 -0.2054962 -0.20496103 -0.16504982 -0.10391317 0.35729012
-0.06389944 -0.03190973 -0.09038815 -0.058172163 -0.24388628 -0.08971042 -0.055374935 0.04000192
-0.042752832 0.100610524 0.11089676 -0.13501927 0.027823502 0.051375847 0.0364317 -0.20277558

conv2.bias f4 [16]
00000000: 69d9 18be 4713 a33b bd0f 75bd e87a 1f3c
00000010: f3c4 b03d 9bb6 a8bd 3739 52be 66b6 86bd
00000020: f316 8cbd c5bf 8ebe 0b23 71be 1e4c 753c
00000030: c0b1 423e d5de be3d 0230 a3bd 6b6b 4d3c
-0.14926685 0.0049766633 -0.059829462 0.009733893 0.08631315 -0.08237954 -0.20529638 -0.065777585
-0.06840315 -0.27880684 -0.23548524 0.014971761 0.19013119 0.093198456 -0.07968141 0.0125378175

bn2.weight f4 [16]
00000000: 498e 863f 5674 863f 913a 7d3f 6be5 603f
00000010: 6c61 763f 9f62 853f 1931 663f 62a1 843f
00000020: 211d 723f 0889 863f d306 843f ce1c 803f
00000030: 5ee2 823f 010c 663f 14c4 783f b44c 7d3f
1.0512172 1.0504253 0.9891749 0.87850064 0.96242404 1.0420722 0.8991867 1.036175
0.945757 1.0510569 1.0314583 1.000879 1.0225332 0.89862067 0.9717419 0.98945165

bn2.bias f4 [16]
00000000: 4e28 9d3d 3c04 b53c 4bb1 02be 051f 893d
00000010: 4de4 f2bc 01b8 41be b1ec 303d 649d 16be
00000020: 9f48 ec3d 11b6 833d 6d6d c2bd d90e dc3d
00000030: 4b7c 763d 3c79 bfbd 14b1 153e 27e3 b0bd
0.07673703 0.022096746 -0.12762944 0.0669537 -0.029649878 -0.18917848 0.043194477 -0.14708477
0.11537289 0.06431211 -0.094935276 0.107450195 0.06017713 -0.093492955 0.14618331 -0.08637076

bn2.running_mean f4 [16]
00000000: 335b 443f 4583 003f 46fe 1a3f d27e 2e3f
00000010: 995b 303f f9e8 f23e 4314 c53e aa0b f33f
00000020: fe5f 043f 41fc 093f 1333 9f3f a089 f93e
00000030: 6937 933f f846 373f 6886 103f e653 213f
0.7670166 0.502003 0.6054424 0.6816226 0.68889767 0.4744337 0.3849202 1.8987935
0.5170897 0.53900534 1.2437462 0.48737812 1.1501285 0.71592665 0.5645509 0.63018644

bn2.running_var f4 [16]
00000000: 8645 123f 55bf a43f 395b 133f 5c9d 283f
00000010: 19fd ab3f a875 473f 2d73 203f f944 5241
00000020: e6a2 2f3f ad77 843f f7b7 fe3f 5edd 203f
00000030: 1030 ad3f 3827 263f aecc 863f ef58 063f
0.57137334 1.287089 0.5756107 0.6586511 1.3436614 0.77913904 0.62675744 13.141839
0.6860794 1.0349022 1.9899892 0.6283778 1.3530293 0.64903593 1.0531213 0.5247945

conv3.weight f4 [32, 16, 3, 3]
00000000: b35f 093e 38fa bfbd 21e8 333e 0304 413c
00000010: f019 4fbe f4d3 003b 97c1 183e d2ef 9a3d
00000020: 5dde 78bc 7fa6 3ebe f720 433c 1a4b b63c
00000030: f947 57bd 153c abbe 7039 58bd 3477 053e
00000040: dda3 d0bc ef0a 213d 27c1 133e 0b44 033e
00000050: 298b dc3d bd17 e6bd 237a 1b3d 0905 e2bd
00000060: 27d5 233e 0c7c 043e a426 673d b1dd 51be
00000070: c238 5abe efbe 55be c0e3 6f3e 21e9 e13d
00000080: 9ba9 2c3d 426b c33c 6f91 a33c e841 0ebd
00000090: f570 f43d e8b2 ab3c 76eb e2bc 80aa a0bd
000000a0: 4a8f e7bd c774 cabd 1649 c939 a3b4 f0bd
000000b0: 844a ef3d 77d9 523e 90d5 4c3e 11f0 85bd
000000c0: fad1 e33d 67bf 6cbe f747 f4bd 22a2 0f3c
000000d0: c75e ecbd c635 813e 9209 2bbe 6d0e e03d
000000e0: af5c efbc b8e6 dfbc b309 5f3b 50a9 a4bd
000000f0: 1e51 7a3d 7b06 acbc dee4 423d 9504 f83d
00000100: 5b33 303e 2520 863e 9bee 363e d202 073e
00000110: b1c7 89bd 967e bc3c edee 913d 41d3 f2bd
00000120: 7a91 093d cdc9 553e 6bbd 7ebe dbb2 a53c
00000130: 2a39 89be 5d27 b33d 5e07 4cbe 32dc d93d
00000140: 91c8 80bd f02a 6fbd e0db 2b3d 2851 dd3c
00000150: b604 f1bd 9593 0cbe 1d01 6ebd befc 13be
00000160: 1080 183d 0ba5 97be 077a 83be a897 3c3d
00000170: 469a 6fbd 9f2f 3d3e b551 593e 6608 0ebd
00000180: 8c01 49bd 1efc 063e 1053 333d 0cf5 5abd
00000190: aa47 0a3e 35a8 233d e548 7cbd 417f 12be
000001a0: 1a71 11be 0915 ee3c bc6a 29bd 6f3f e23c
000001b0: c732 843d 53c7 21be c058 d0bd 3d0d f5bd
000001c0: 0409 2e3d 2114 f7bd 9360 90bd 6b32 98bd
000001d0: 9425 eabc 38b4 da3d a4f2 67bd 3edb 2fbd
000001e0: b62d d7bd 6f95 02bd 4db8 1bbe 41b6 5c3e
000001f0: ca89 243d 9652 543d 6fb3 82bd cc57 823e
00000200: b750 9c3e 4b26 ffbb 436d 153e 374a c63d
00000210: 2b2c 823d 7212 8e3e e164 083b ee70 3bbc
00000220: f69b 08be 7a03 513d ae55 7f3c a192 c8bd
00000230: 5164 5a3d 0fbc b63c b7fa 7cb8 9cd6 bf3d
00000240: 2cf5 833d 2041 afbd 4ede 9d3d 14c8 ef3d
00000250: 7c31 373b 71cb c33c 0bd8 ccbb 0c68 c6bd
00000260: 64b8 fbbd c07e 3cbe 7b47 e33d b9aa 5abc
00000270: 9ab2 c23c b78c f0bd f541 95bc 1b61 8cbd
00000280: f769 47bd 6974 5e3d 894c c1bd 22b8 5a3e
00000290: c7df f03c 51a0 aebe b60b 573b 362f bfbd
000002a0: 2e3d 173d 29e7 a83d 410a a13d 0843 2e3d
000002b0: 45a5 47be 15f5 943c 67dd 2ebd 4b0c 87bd
000002c0: baaa 303c dee6 d53c f52c f8bd 2005 803c
000002d0: 9833 6bbd efbb 1d3d dfc4 56be b64d c03c
000002e0: 6b46 583e d887 74bd e38a 583e 2f87 383e
000002f0: 1455 dcbc 2181 953e 4b43 0fbe 3cf6 dc3d
00000300: 4f24 b23d 396d e23d 55f0 b2bd 628a f13d
00000310: 1136 6a3d 7095 0dbc 0576 673e 3a3f 05be
00000320: ce13 90bd 338b f03d 4691 503d fee3 793d
00000330: 0628 c83c 8b07 863e f76e f6bc e027 7dbd
00000340: 6c1f a93d ff49 86bd 3585 de3d 3d67 733d
00000350: b05e 1dbe 258e dabd afe7 893d b05c 5e3d
00000360: 2473 b83d c770 a73e 22df 2e3c 301e 10be
00000370: 19ef d03d bcfd 053e 3ffa 443e eb4e 523e
00000380: 7e21 28be ffdf 59be 696d acbd 655a 66bd
00000390: c478 c63c 5bcd 3bbe 8e50 23bd 7717 0b3e
000003a0: 9440 4dbe 7cac 58bc 1197 5bbc d035 a0bd
000003b0: 8b65 f13c 8874 3cbd b61a 843c 7dea 8a3e
000003c0: ed11 913d a439 3c3d 3390 fb3d f11c 9cbe
000003d0: 8b01 97bd 9ee7 eb3d 7563 85bd 126e 873e
000003e0: 9346 2d3e 74d7 c8bd 21d6 2abe 7c9e 16bd
000003f0: b9a1 ac39 5b92 27bd ec91 00be 229e 9dbd
0.13415413 -0.09373897 0.17569019 0.011780742 -0.20224738 0.0019657584 0.14917599 0.07565273
-0.015189734 -0.186182 0.011909715 0.022252608 -0.052558873 -0.33444276 -0.05278915 0.13033754
-0.025468761 0.039317068 0.1442915 0.12818925 0.1076873 -0.112349965 0.037958276 -0.11036117
0.1599928 0.12937945 0.056433335 -0.20494725 -0.21310714 -0.20873617 0.23426723 0.11030794
0.042153936 0.023854855 0.01996681 -0.03473082 0.11935607 0.020959333 -0.027700167 -0.0784502
-0.11306627 -0.09885555 0.0003839216 -0.11753204 0.116841346 0.20590769 0.20003343 -0.0653993
0.11124034 -0.23119889 -0.11927789 0.008766683 -0.11541515 0.25236338 -0.1670287 0.109402515
-0.029219 -0.027331695 0.003403288 -0.08040106 0.061112516 -0.020999184 0.047581546 0.12110249
0.1720709 0.261964 0.17864458 0.1318467 -0.06727541 0.02300958 0.071256496 -0.118567
0.033586003 0.20877762 -0.24876945 0.020226886 -0.26801425 0.08747742 -0.19924685 0.10637702
-0.06288255 -0.058390558 0.041957736 0.027016237 -0.11768477 -0.13728173 -0.05810653 -0.14451882
0.037231505 -0.29618105 -0.25679037 0.04604307 -0.058496736 0.18475197 0.21222575 -0.034675978
-0.04907374 0.13182113 0.043780386 -0.05345635 0.135039 0.039955337 -0.061592955 -0.14306356
-0.14203301 0.029062765 -0.041361555 0.027618138 0.064549975 -0.15798692 -0.10173178 -0.119654156
0.042489067 -0.12064386 -0.0704967 -0.074314915 -0.028582372 0.10678905 -0.056627885 -0.042933695
-0.105067655 -0.031880792 -0.15207024 0.215539 0.04017047 0.051836573 -0.063818805 0.2545761
0.3053033 -0.0077865473 0.14592461 0.09682124 0.063560806 0.27748448 0.0020812082 -0.011440499
-0.13340744 0.051028706 0.0155843925 -0.09793592 0.053318325 0.02230647 -6.031498e-05 0.09367105
0.06443247 -0.085573435 0.07708417 0.11708084 0.002795308 0.02390072 -0.0062513403 -0.09687814
-0.12291029 -0.18407726 0.11097618 -0.0133463675 0.023766804 -0.11745589 -0.018219927 -0.06854459
-0.04868504 0.054310236 -0.09438426 0.21359304 0.02940358 -0.34106687 0.0032813377 -0.09335177
0.03692358 0.08247215 0.07863284 0.042544395 -0.19496639 0.01818327 -0.042691614 -0.065941416
0.010782892 0.026111063 -0.1211795 0.015627444 -0.05742225 0.038509306 -0.20973538 0.023474555
0.21120612 -0.059699863 0.21146731 0.18020318 -0.026896037 0.2920008 -0.13990514 0.10789153
0.086983316 0.11055989 -0.08737246 0.117939726 0.057180468 -0.008641586 0.22603615 -0.130124
-0.070350274 0.117453 0.050919794 0.061008446 0.024433147 0.2617763 -0.030082209 -0.061805606
0.08257946 -0.065570824 0.10865251 0.059424628 -0.15368152 -0.10671643 0.06733643 0.054287612
0.09006336 0.3270323 0.010673316 -0.14074016 0.10201854 0.13085073 0.19236086 0.20537917
-0.16419026 -0.21276854 -0.08419306 -0.05623855 0.024227507 -0.18340056 -0.039871745 0.1358317
-0.20044166 -0.013224717 -0.013402716 -0.07822764 0.029467365 -0.04600957 0.016126018 0.27132025
0.07083497 0.045953408 0.12283363 -0.3049083 -0.07373341 0.11518787 -0.065131105 0.26451164
0.16921453 -0.098067194 -0.16683246 -0.036772236 0.0003292689 -0.04091106 -0.12555665 -0.07696177

conv3.bias f4 [32]
00000000: a09e 60bc bd51 4fbe 046c 2fbe 2857 6bbe
00000010: 3d0b d8bd 7008 1abe 9b3a 53be ec9d 8dbe
00000020: 9401 4abd 20c0 94be 7802 08be e34e b1bd
00000030: 2733 a4be 029d 43be d22b 17be 9e75 e5bd
00000040: 853e 57be 0bab 5ebe e5ee 39be 4eb4 a3bd
00000050: 94ca 553d d8fd 31be d56c 2dbe fb57 89bc
00000060: 7695 06be 075c 2bbe 3d13 58be 70f6 76be
00000070: ab94 58be 3162 84be ed3d 47be 7ea1 ddbd
-0.013709694 -0.20246024 -0.17131048 -0.22982466 -0.105490185 -0.15042281 -0.20627825 -0.27659547
-0.04931791 -0.2905283 -0.13282192 -0.086576246 -0.32070276 -0.19102862 -0.1476281 -0.11204074
-0.21019943 -0.21744935 -0.18157537 -0.07993375 0.052195147 -0.1738199 -0.16936047 -0.016765585
-0.13142952 -0.16734324 -0.21101089 -0.24117446 -0.21150462 -0.25856164 -0.19457217 -0.10821818

bn3.weight f4 [32]
00000000: 185b 7f3f 9ee1 553f dca9 7b3f 6ca5 813f
00000010: dfc5 853f e9be 693f 371f 653f f30b 763f
00000020: 9dc6 663f 036d 843f a1e6 823f 01bd 8d3f
00000030: d357 733f 7381 683f 3eaa 7b3f f80c 643f
00000040: 6ec1 713f 76c5 703f 5bba 783f d970 853f
00000050: c261 763f fffd 883f 988b 813f 1a92 4d3f
00000060: e5b7 743f 15bb 873f 6dfa 823f da73 7a3f
00000070: 04d0 713f a827 633f fc6a 813f 088b 663f
0.99748373 0.8354739 0.9830606 1.0128608 1.045101 0.9130693 0.89500755 0.96111983
0.9014681 1.0345768 1.0226632 1.1073304 0.95055884 0.90822524 0.98306644 0.8908229
0.94435775 0.940513 0.97159356 1.0425063 0.96242917 1.0702513 1.0120726 0.8030106
0.955931 1.0603968 1.0232674 0.97833025 0.9445803 0.88732386 1.0110774 0.90055895

bn3.bias f4 [32]
00000000: 1676 f63d b11a bb3e e41f 85bd e754 1cbe
00000010: d659 abbc 00a5 c83e 7e18 dcbd a426 acbe
00000020: 6485 533d a15f dabe 6060 913d 659e 0f3d
00000030: 46ea c2bd 780c c7be 63a9 91be d80c cf3d
00000040: 6d2a 5bbd 0cf2 9e3e 139c 41be ff5f a0be
00000050: 0eea 9cbe d212 893e 6aac d13e ebab 893e
00000060: cd3b 1bbf f598 3fbd 6e43 213e b497 413e
00000070: d757 b5be 3215 333e 4c23 053f bd14 273f
0.12034242 0.365438 -0.06500223 -0.15266763 -0.02091686 0.39188385 -0.10746859 -0.3362323
0.051640883 -0.42651084 0.0709846 0.035063166 -0.0951734 -0.388767 -0.28449544 0.101098716
-0.053507257 0.31044042 -0.18907194 -0.3132324 -0.3064732 0.2677217 0.40951854 0.26888976
-0.60638124 -0.04677673 0.15748379 0.18905526 -0.3541858 0.17488554 0.52006984 0.6526602

bn3.running_mean f4 [32]
00000000: 7b00 1b3f 41da f83e 2a6e 313f bb40 123f
00000010: 102d 193f 213f 063f 26c0 043f 78ad b73e
00000020: 048d 283f 2e01 7c3f 0abb 2f3f 2a68 9c3f
00000030: 0a1a c13e 19a0 b73e 667b 383f 989a d83e
00000040: c203 1c3f da6d ce3e 75a3 143f 4004 063f
00000050: c625 8a3f 543a 493f 8cbc 353f c452 d73e
00000060: 7893 443f aba7 493f f7ef d13e 6ed4 843e
00000070: bbbb 103f 72d4 e83e 6ba8 eb3e 8485 a33f
0.6054761 0.48604015 0.6930872 0.5713002 0.59834385 0.5244008 0.51855695 0.35874534
0.6584017 0.984393 0.68644774 1.2219288 0.3771518 0.35864332 0.7206329 0.42305446
0.60943234 0.40318185 0.58061916 0.52350235 1.0792778 0.78604627 0.70990825 0.42055333
0.7678752 0.78771466 0.4100339 0.2594332 0.56536454 0.45474583 0.4602693 1.2775121

bn3.running_var f4 [32]
00000000: a062 963f 7fae 183f f1a5 ec3f 1110 2d3f
00000010: 957d 7d3f 71d3 383f 80ac a83f 90f0 243f
00000020: 3447 713f d9f4 ae3f eb87 883f 323c f83f
00000030: 655a c63e 8cf1 e03e a596 a43f 9486 673f
00000040: ba7d dc3f 4691 203f a366 7e3f 7735 7a3f
00000050: f0fb 9a3f bab8 b33f 37d6 be3f a20a 423f
00000060: b97d 0f40 470e bc3f 9c37 2b3f 997c b13e
00000070: 8f3b 903f 88fb 963f 2659 423f 24e1 3540
1.1748848 0.5964126 1.8488141 0.6760264 0.9901975 0.72197634 1.3177643 0.6442957
0.9424927 1.3668472 1.0666479 1.939337 0.3874084 0.43934286 1.2858473 0.90439725
1.7225869 0.6272167 0.9937536 0.9773783 1.2108135 1.4040749 1.4909123 0.75797474
2.2420485 1.4691857 0.6688173 0.34665373 1.1268176 1.1795511 0.7591728 2.8418665

conv4.weight f4 [64, 32, 3, 3]
00000000: 0f1d 09bd 8b58 a6bd 480d 6dbe ba05 2a3e
00000010: 328c de3d 7e1b ddbd 4054 21bd 282b 083d
00000020: 21b5 9fbd af03 0cbe 1357 a3bd 9b5d 0abe
00000030: ed4f 02be 3009 c9bd d1c9 f93c e1dd ed3b
00000040: d276 b1bd b9b4 2a3d 07ba afbd 6469 c83c
00000050: 814b 3bbe 68d1 11bd 7d87 95bc 9d41 60bd
00000060: e54e bb3d 44cd 043e 3dea a0bb 9cbe 9fbd
00000070: abdd 38bd 282f 023d 261d 70be 7dce 12be
00000080: f642 533d f351 dbbd 82ec a8bd 145b 96bc
00000090: a60b 91bd 5178 5bbd cd4c 85bd 3f31 09ba
000000a0: 97aa 5cbb 86b8 ab3d fe3b cfbd 17b4 2abe
000000b0: 7c33 23be 53ea 0abe 6c49 21be bf36 81bd
000000c0: a0c9 433d a240 bb3d a46c b1bd 104c 1abe
000000d0: f7e9 f9bd 5449 8bbd 2492 163d 468f 9e3d
000000e0: bd4b bdbb 6596 f3bd 8ca6 c73c 8703 053e
000000f0: cecc 1e3c 58e2 5dbd 3cbf 163d 6936 9d3d
00000100: 5940 173e 5ff9 59bd f1f0 a83c 057f f53d
00000110: c98f 073e 923f ee3d 425f 3b3d c673 a83d
00000120: ba57 34bd 12fc 97b9 5c12 5c3e 88af d33c
00000130: 7ce8 edbd 2481 9d3d 1871 bfbb ce5d b4bc
00000140: 8062 c6bd dcfe 093e ee67 433e b989 523d
00000150: 11a2 6b3b 7698 5cbd a70d 703d 8a36 17bd
00000160: 5e9d 273e b76b e5bd 18dd afbc 7e7f 2cbe
00000170: 8216 76bd f0d5 eb3c 9e19 bcbd 2f41 a23d
00000180: 4eb9 8f3b 52ff 01be 4824 1d3d 9471 cabc
00000190: d1bd 38bd b60a fa3d f16b 5dbd 1a9e f0bd
000001a0: bd44 07be ea5f f3bc 670b efbd f241 3e3c
000001b0: 2327 adbd e949 393d 1937 e93c 6d84 a63d
000001c0: c913 03bc 93e8 d1bd 7878 f7bd cb86 24be
000001d0: 9792 43be 19eb 89bd 361b c43d 0813 cdbd
000001e0: 5be5 ff3d 6afa eabd ed42 bcbd 73a5 653e
000001f0: dde8 47bd 7d65 adbc b5db b93d 55f3 383e
00000200: a977 153e 0d9c c8bd 7017 763d ca38 4e3d
00000210: 95f9 35bd c5ea 193d 9d97 2f3d a637 c43d
00000220: 88ca e6bd bd01 343d 9e87 663c 794d 69bc
00000230: 746a a1bd b8d3 37bd 4dd0 e83d 00c2 b1bd
00000240: 2089 e3bc cff3 203e 58a4 4d3e 58e7 30be
00000250: 10e6 d2bd 01bd 06be 36e6 01be 2023 4dbd
00000260: 9e49 1fbe fe47 c3bd 2ae8 83be 6dcd fdbd
00000270: bb1d a93c a85c 78bd 3d44 303c 12bc 273e
00000280: 2ffe 7abc 4ae5 8ebc 460d aabd af8d b0bd
00000290: 70a4 73bd 6209 3b3d 2ede b03d c745 17bd
000002a0: 1d77 093c d77d 61bd 0ca1 bc3c d85e bc3d
000002b0: 589a 4abb 9309 c23c 5951 9b3c c4e7 6e3d
000002c0: 3f49 f23d e484 20bd bd3c 02be ae5a 403e
000002d0: c8d3 a7bd 6f7a 303d a461 803d 21b3 bebd
000002e0: 1ee3 3ebd 731d 7bbd 027a 2c3c bd3a 1d3d
000002f0: f7b9 39bc 8642 d83d ddcc ae3d 26c0 bc3d
00000300: a132 a93d 828f 173e 5367 bb3d cc98 2d3d
00000310: 1deb 96bc 343f 1abe 2136 d5bc 9029 d53d
00000320: 19f3 ac3c 6c2c b23b f280 fcbc a723 0e3b
00000330: 4918 c1bc afc4 b1bd 1fdc 30bd 1102 ecbd
00000340: 826c c4bd b68a eabc 24d8 3fbe 9514 04bc
00000350: d44c 923e 4675 923d f444 13bd 84b9 ad3c
00000360: eb39 883d 54d7 7b3e e381 823d 0d15 783d
00000370: 3a2f 053e 4668 013d faf9 fb3d 8496 083d
00000380: b005 143e ddff 673e 0e41 2d3e d0dd 5d3e
00000390: 2db1 423d d78f 36bd 8cc5 1ebe acd6 25be
000003a0: f372 8fbd 43db e93d a83e 2d3b c2b7 6abe
000003b0: c40d 3cbe 020a 0a3e 4903 02bd 09b1 2fbd
000003c0: 580a f83d 7086 fd3d d0f1 e6bd 973b 13be
000003d0: cc76 04be 9075 e6bd 74c6 763c 2361 d63d
000003e0: 2157 bd3d 15e9 1a3e e125 44bd ee38 4a3d
000003f0: 23db ad3d 84e9 b03d 1bbf f13d 61a3 0b3d
-0.033474978 -0.08122357 -0.23149598 0.16603747 0.10866584 -0.10796259 -0.039386988 0.033244282
-0.077982195 -0.1367328 -0.079755925 -0.1351227 -0.12725802 -0.098162055 0.030491741 0.007259116
-0.08665241 0.041676257 -0.08580404 0.024464317 -0.18290521 -0.035600096 -0.018253082 -0.054750074
0.09145907 0.12968928 -0.004910736 -0.07800028 -0.045133274 0.031783253 -0.23448619 -0.14336582
0.05157753 -0.1070899 -0.08248235 -0.018353976 -0.070823 -0.05358154 -0.06508789 -0.00052334735
-0.0033671015 0.083848044 -0.101188645 -0.16670261 -0.15937608 -0.1356595 -0.15750664 -0.0630927
0.047799706 0.09143187 -0.086633 -0.15068078 -0.122028284 -0.068010956 0.036760464 0.07742171
-0.005776851 -0.1189392 0.024371408 0.12989627 0.009692384 -0.054170936 0.03680347 0.076763935
0.1477064 -0.053216334 0.020622702 0.11987118 0.13238443 0.11633219 0.04574514 0.08225207
-0.044028975 -0.0002898877 0.21491379 0.025840536 -0.116166085 0.07690647 -0.0058423392 -0.022017386
-0.09686756 0.13476127 0.19082615 0.051400874 0.0035954753 -0.053856336 0.05860677 -0.036917247
0.16368625 -0.112021856 -0.02146773 -0.1684551 -0.06008006 0.028788537 -0.091845736 0.07922589
0.0043861037 -0.12695053 0.03836468 -0.024712361 -0.045102898 0.12209074 -0.05405802 -0.117489055
-0.13209815 -0.029708821 -0.11672097 0.011612402 -0.0845473 0.0452365 0.028468655 0.08130727
-0.008000323 -0.10249438 -0.120835245 -0.16067044 -0.19098888 -0.067342944 0.095755026 -0.100133955
0.12494918 -0.11473544 -0.091924526 0.22426395 -0.04880606 -0.021166557 0.09075109 0.18061574
0.14596428 -0.09795389 0.060080945 0.050347127 -0.044427473 0.03757741 0.0428692 0.095809266
-0.112690985 0.04394697 0.01407042 -0.014239662 -0.078816324 -0.044879645 0.11367855 -0.08679581
-0.027775347 0.15718006 0.20082223 -0.1727575 -0.10297787 -0.13158037 -0.12685475 -0.050082326
-0.15555426 -0.09535216 -0.25763065 -0.123926975 0.02064406 -0.06063524 0.010758457 0.16380337
-0.015319391 -0.017443318 -0.08303313 -0.08620774 -0.05948299 0.045663245 0.086361274 -0.03693178
0.008390215 -0.05505165 0.023026012 0.091977775 -0.003091475 0.023686206 0.018959688 0.058326498
0.11830377 -0.039189234 -0.12718482 0.18784592 -0.08194691 0.04308551 0.062686235 -0.0931151
-0.046603315 -0.06130738 0.010527136 0.038386095 -0.011335841 0.10559563 0.08535168 0.09216337
0.0826161 0.14800838 0.09150567 0.042382047 -0.018422658 -0.15063173 -0.026026787 0.10408318
0.021112012 0.0054374244 -0.030823205 0.002168873 -0.02357115 -0.086800925 -0.043178674 -0.11523832
-0.09591009 -0.028630596 -0.18734795 -0.008061548 0.2857424 0.071512744 -0.03595443 0.021206625
0.06651672 0.2459386 0.0637243 0.06056695 0.13006297 0.031593584 0.123035386 0.033346668
0.14455295 0.22656198 0.16919348 0.21666646 0.04753225 -0.04457077 -0.15505046 -0.16195172
-0.07004347 0.11418774 0.002643505 -0.2292166 -0.18364626 0.1348038 -0.031741414 -0.042893443
0.12111348 0.123791575 -0.11276591 -0.143782 -0.12935942 -0.11252892 0.015061963 0.10467746
0.09245134 0.15127976 -0.047887687 0.0493707 0.08489063 0.086382896 0.118040286 0.034091357

conv4.bias f4 [64]
00000000: 063a 03be 789d 3fbe 134a 99be 8ff0 abbe
00000010: 3125 edbd 8610 8bbe 3d1d 64be c69b 38be
00000020: 4003 8abe 95e2 aebd a01e 2dbe 991b 69be
00000030: fd66 72be c913 91be 5fbb 28be 9b5a 6abe
00000040: df2d 67be 102d 31bd 87d0 13be 70d5 45be
00000050: 9239 8dbe 375b 3abe e8d4 0abe dba8 28be
00000060: f84f 92be 22c7 9bbe 0eee 77be bedb 8bbe
00000070: 7baf 49be 6318 8cbe c470 29be 2c40 1fbd
00000080: dfb5 bbbe 8ccb 81bd 2078 1fbe dbf9 28be
00000090: 53f1 36be 5e23 e0be 8626 83be 8162 64be
000000a0: 2605 8cbe e1c3 1abe 3ea1 78be b65f 8ebe
000000b0: feef 27be ab6e 41be 903f 45be 4768 34be
000000c0: f265 56be b45a acbe 3a9e 7cbe 51c0 83be
000000d0: 9eab aabe ac67 3dbe bff5 a6be 63a8 42be
000000e0: cc23 4fbe 6b7a efbd 7cea cfbd fa11 52be
000000f0: de20 a0be ad8f 68be 1212 a5be 9aab 7abe
-0.12815103 -0.18712413 -0.29939327 -0.3358197 -0.11579359 -0.27161044 -0.22276779 -0.18028173
-0.26955605 -0.08539311 -0.16906214 -0.22764434 -0.236721 -0.28335407 -0.16477726 -0.22886126
-0.22576092 -0.043255866 -0.14435016 -0.19319701 -0.27582985 -0.18198858 -0.1355778 -0.16470663
-0.28576636 -0.30425364 -0.24211904 -0.27316087 -0.19695847 -0.27362356 -0.16546923 -0.03887956
-0.36662194 -0.063376516 -0.15573168 -0.16501562 -0.17865495 -0.43776983 -0.2561533 -0.22303201
-0.27347678 -0.15113784 -0.24280259 -0.27807397 -0.16400144 -0.18889873 -0.19262528 -0.17617904
-0.20937327 -0.3366295 -0.24669734 -0.25732663 -0.3333406 -0.18496579 -0.32609364 -0.19009547
-0.20228499 -0.11693271 -0.10152146 -0.2051467 -0.31275076 -0.22711058 -0.3224035 -0.24479523

bn4.weight f4 [64]
00000000: feae b33f a684 c13f 4312 f13f 71d1 f33f
00000010: 1773 d43f 4dc9 d63f c600 c83f bc06 ef3f
00000020: 10c7 fd3f 07ff bb3f 802b bf3f aa9d ca3f
00000030: 3ae1 b63f f1f4 d63f 3512 da3f b12f d23f
00000040: bc4a e43f aecb c13f 52f7 b43f 0f31 c43f
00000050: 7a33 e23f 1276 c43f 49fc d13f fbac d43f
00000060: e100 f03f 69e4 f73f 3405 d83f 69ed e83f
00000070: b78d db3f a5b4 ce3f 9cff c93f b786 9d3f
00000080: a647 e63f 78e7 b13f 0d07 f03f 1a99 ab3f
00000090: 558b ad3f 2c4d e93f 60c1 dc3f dd16 b03f
000000a0: b6bb ea3f 42a8 e63f a76c e93f ac93 d73f
000000b0: c789 ae3f 26b8 ba3f 515b be3f 9a86 cf3f
000000c0: d37b a73f 1227 ee3f 81b9 be3f f9d7 d03f
000000d0: a6e5 d93f 5d1c ce3f 38d4 ed3f 9bb1 c73f
000000e0: 49e5 c43f ab6c a93f fa1e ab3f a3e7 dc3f
000000f0: 70de db3f 4a70 d53f 505e f53f 3db7 db3f
1.4037778 1.5118606 1.8833698 1.9048291 1.6597623 1.6780182 1.5625236 1.867393
1.9826374 1.4687203 1.493515 1.5829365 1.4287484 1.67935 1.7036806 1.6420804
1.7835307 1.5140283 1.4137976 1.5327471 1.7671959 1.5348532 1.6405116 1.661529
1.8750268 1.936658 1.6876588 1.8197452 1.7152623 1.6148878 1.5781131 1.2306737
1.7990615 1.3898764 1.8752152 1.3406098 1.3558146 1.8226676 1.7246513 1.3756977
1.8338535 1.8020098 1.8236283 1.6841941 1.3635796 1.4587448 1.4871618 1.6212952
1.3084663 1.8605673 1.4900361 1.631591 1.7023208 1.6102406 1.8580389 1.5601076
1.5382472 1.3236288 1.3368828 1.725819 1.7177258 1.6674893 1.9169407 1.7165295

bn4.bias f4 [64]
00000000: c82d cd3c 9aa5 d9bc 3dfa 043c 956f bebc
00000010: 34b5 d1bc b157 873c 531b 3f3d 7ee6 90bc
00000020: 04cd 92bc b63f 673c 5c8d cdbc 1d07 ba3c
00000030: 17cf 8a3c 3621 3ebd d533 e5bc 90f0 60bd
00000040: 06c5 d9bc 25e3 26bd ee6c a33c f0b1 e7bc
00000050: 8873 933c 9012 cabc 2dfe bd3c 659d eabc
00000060: 387b 0bbd 7051 c6bc e2a3 ce3c c323 24bd
00000070: 9992 af3c d9e6 be3c 0a0a c8bc 33b7 fa3c
00000080: e781 37bd 0e16 0cbd 38db cbbc ebe0 bb3c
00000090: d865 bdbc 2ee4 a43a 0856 a23c bf31 d83c
000000a0: 42da 0ebc fdcf b8bc b080 f0bc e411 ceba
000000b0: c7f1 e2bc ed83 693c aa22 e1bc 1053 9e3c
000000c0: 9e32 e7bc 41e5 d4bc 48d0 bbbc 2f11 4bbd
000000d0: 1bfd 6fbd ee6e b23c 1d09 8bbc 43d0 b43c
000000e0: 7fbf 9f3c fe40 7bbd 1eff eb3c 4b39 d7bc
000000f0: 1244 debc 7c59 0fbd e9e6 aabc 5360 5f3d
0.025046244 -0.026568223 0.008116302 -0.023246566 -0.0255991 0.016521307 0.046656918 -0.017688032
-0.017920025 0.014114311 -0.02509182 0.02270847 0.016944451 -0.04641839 -0.027978817 -0.05491692
-0.026583206 -0.040743966 0.019949403 -0.02828309 0.017999426 -0.024667054 0.02319249 -0.028639505
-0.034053057 -0.024208754 0.02522463 -0.040073168 0.021432208 0.023303436 -0.02441885 0.030604934
-0.04480162 -0.03420072 -0.024884805 0.022934398 -0.023119852 0.001258021 0.019816414 0.026390908
-0.008719029 -0.022560114 -0.029358238 -0.0015721885 -0.027703179 0.014252645 -0.02748235 0.019326717
-0.028222378 -0.025988223 -0.022926465 -0.049576934 -0.05859099 0.021781411 -0.016972119 0.022071963
0.019500492 -0.06134128 0.028808173 -0.026272437 -0.027132068 -0.03499745 -0.02086206 0.05453522

bn4.running_mean f4 [64]
00000000: 09e8 063e a6e7 4e3d bbc0 683d 0ac3 e53c
00000010: 2442 5c3d 9e28 b93c 6e41 513d 2a2d 953d
00000020: ece5 a73c d2e8 353e 5416 9a3d 0715 003e
00000030: 7454 533e 034c 783d 6ca7 743d ea1e 093d
00000040: 1173 253d 1eea 733d 4cd7 403e 21d0 433d
00000050: 8163 713d 86af 783e b82c c73d d586 883d
00000060: 7742 723d ca8a 683d a664 4f3d 5d8d 0e3d
00000070: 7320 473d 67ef 883d 3900 563d f535 3a3e
00000080: 566a f03c 3b39 193e a270 433d b86e 813e
00000090: c307 2a3e addc 693d 6734 1b3d 6d24 e23d
000000a0: dcef bd3d a55f 1b3d e428 893c 3e2e d53d
000000b0: 3135 123e e4c2 783e 5502 a73d bdb4 ec3d
000000c0: 2b31 d33e 8ca8 b03c 2a0d 223e f586 693d
000000d0: 20af cc3d d8c6 fc3d 68e3 713d 66bf e63d
000000e0: 36da 423e f47b 2b3e 0e86 fd3d 05ac cd3c
000000f0: a575 693d 1197 1d3d 1702 253d ef1c d93d
0.13174452 0.050513886 0.056824427 0.028047103 0.053774014 0.022602376 0.05108779 0.07284005
0.020495377 0.17764595 0.0752379 0.12508021 0.20637685 0.060619365 0.05972998 0.033476748
0.04039294 0.059549443 0.18832129 0.04780591 0.058932785 0.24285707 0.09725326 0.06666342
0.059145417 0.056772985 0.050633095 0.034802783 0.04861493 0.066862874 0.052246306 0.18184645
0.02934758 0.14963238 0.047714837 0.25279784 0.16604523 0.05709522 0.03789177 0.11042104
0.09274265 0.03793301 0.016743131 0.104092106 0.14278103 0.24293095 0.08154742 0.115579106
0.4124845 0.021564744 0.15825334 0.05701347 0.0999434 0.12342614 0.059054762 0.11266975
0.19028553 0.16746503 0.123790845 0.02510644 0.05699696 0.038474146 0.040285196 0.10601222

bn4.running_var f4 [64]
00000000: f11a 1d3e 0c58 8c3d 1cf9 873d c635 233d
00000010: 66ec 793d 4091 c03c 87b3 583d c8ad b53d
00000020: 3ef1 a53c 1e1c 613e d0a5 b33d 1aa7 323e
00000030: 3d2a 8e3e 1e87 9b3d f215 983d 7b8e 353d
00000040: 8936 313d 8a85 613d 5717 703e 24d3 6f3d
00000050: b319 a73d 2ed5 773e 7ce6 e03d 521f 743d
00000060: cf3d 833d 772f b03d b950 803d f0e8 073d
00000070: 1271 523d bb31 9f3d 54ca 7d3d b757 503e
00000080: e90e 303d e334 343e 0d95 6d3d a39c c63e
00000090: 050c 8b3e 5cc2 933d 05e7 343d d4a0 153e
000000a0: 1aeb 103e 877e 393d c7cb 893c 5f49 193e
000000b0: eec3 653e a1df 933e 3239 fd3d e09f 033e
000000c0: eb2f 403f a4e6 eb3c 34c5 593e 4f30 b03d
000000d0: 4523 343e 3bc5 103e a8f5 b43d ac2b 0c3e
000000e0: a1dd 663e 54df 263e fe0a 053e 287b 033d
000000f0: 3d7b 963d 4909 3e3d 0d7b 623d a31d 1e3e
0.15342309 0.06852731 0.06639311 0.039846204 0.061016463 0.02350676 0.052905586 0.08871037
0.020256635 0.21983382 0.087718606 0.17446557 0.277666 0.07594131 0.07426061 0.044325333
0.0432649 0.055058993 0.23446403 0.05855097 0.081591986 0.24202415 0.109814614 0.059600182
0.064082734 0.08602803 0.062653966 0.03318113 0.051377364 0.07773157 0.061960533 0.2034596
0.04298297 0.175983 0.058003474 0.3879138 0.27157608 0.072148055 0.04416563 0.14612132
0.14152184 0.04528668 0.016820801 0.14969395 0.22438022 0.28881553 0.12364425 0.12853956
0.75073117 0.028796501 0.21266633 0.08602964 0.1759158 0.14137737 0.08835918 0.13688534
0.22545482 0.1629613 0.12992474 0.032099873 0.073477246 0.046395574 0.05529313 0.15440993

lin.weight f4 [2, 64]
00000000: b828 f3be 046d f23e d267 2abf ff16 553f
00000010: f9c9 173f 6535 debe 9e4f eabe d813 4d3f
00000020: 753e 573f f221 f8be e157 ea3e 7e83 16bf
00000030: a6a4 c4be 55bd e33e 2db2 273f 2181 aa3e
00000040: d580 323f d9fc bd3e 5b38 b8be bbb1 033f
00000050: 5a69 23bf f7fc ee3e 8c49 20bf 6a10 043f
00000060: 5672 083f 3c1b 2c3f f7b3 e9be 8fc7 253f
00000070: 35be 24bf 6521 14bf cc3f 063f 032e 18be
00000080: 6986 0f3f 5c23 703e 51c6 163f bf98 cdbe
00000090: 49df c93e a3af 29bf 48f4 21bf 511d debe
000000a0: 1c5b 2c3f 0999 343f a136 053f 0de4 06bf
000000b0: cfe0 b23e d6ad ecbe 0bb2 f93e 066b 0fbf
000000c0: 07a1 ab3e f2e1 ea3e f07f d73e 871a e23e
000000d0: 5333 d43e f8dd 03bf 5504 233f 4c8e f3be
000000e0: 4097 d7be 9341 9a3e 497c abbe b426 e63e
000000f0: 2244 193f 7b69 cd3e 2ac9 5a3f deef ebbe
00000100: 9e85 e33e 9712 fbbe a5e1 263f 1bb6 55bf
00000110: f1e3 18bf e4c1 1a3f d49a eb3e e3ad 48bf
00000120: 943b 3cbf f616 903e fa4d c8be 088d 163f
00000130: 8f77 d23e d4c4 f2be 2701 02bf 9235 13bf
00000140: a4cb fdbe 8f09 e9be c6d6 c73e b731 d1be
00000150: 0f82 0f3f 2337 d6be ea43 103f ed8a f3be
00000160: 9ba5 3abf cb57 52bf eda6 1c3f 4220 17bf
00000170: 98b1 1b3f ac52 d43e f486 08bf b119 a83e
00000180: 322f 07bf c7b9 d9be 49a6 3fbf 3f14 833e
00000190: 3dc9 55be c9c1 083f e67b eb3e 5b45 9b3e
000001a0: fd69 0abf c4f3 39bf 1427 30bf f652 d83e
000001b0: cf84 cfbe d86c c83e becb ddbe 64db 1b3f
000001c0: 4a19 90be 3bdf 2cbf d154 f2be 749b bfbe
000001d0: 9fb4 0cbf 702a d83e fcb5 3abf af76 073f
000001e0: 5cff e83e 2118 67be 3936 a13e d3d2 19bf
000001f0: fbdf 04bf 46ff 14bf 9d26 4fbf 742b 203f
-0.47492003 0.47348797 -0.6656467 0.83238214 0.5929256 -0.43400112 -0.45763868 0.80108404
0.84079677 -0.48463398 0.4577017 -0.5879439 -0.38406867 0.44480386 0.6550625 0.33301643
0.6972783 0.3710697 -0.35980496 0.5144307 -0.6383263 0.46677372 -0.62612224 0.51587546
0.5329946 0.67229056 -0.45645115 0.6475763 -0.6435273 -0.57863456 0.52441096 -0.14861302
0.5606447 0.23450989 0.58896357 -0.401556 0.39428166 -0.66283625 -0.6326337 -0.43381742
0.6732652 0.70546013 0.5203648 -0.5269173 0.3493714 -0.46226376 0.48768649 -0.5602268
0.33521292 0.45875508 0.42089796 0.44160864 0.41445407 -0.5151057 0.63678485 -0.475695
-0.42107582 0.30128154 -0.3349326 0.44951403 0.5986959 0.40119538 0.854632 -0.46081442
0.4443788 -0.4903762 0.65188056 -0.83480996 -0.5972281 0.60452104 0.46016562 -0.7839033
-0.7352841 0.28142518 -0.3912199 0.58808947 0.4110684 -0.47415793 -0.5078301 -0.57503617
-0.49569428 -0.45515105 0.39031047 -0.40858242 0.5605783 -0.4183894 0.5635363 -0.4756693
-0.72908944 -0.8216521 0.6119221 -0.59033597 0.6081786 0.41469324 -0.5333092 0.328321
-0.5280639 -0.4252455 -0.74863106 0.25601384 -0.20877548 0.5342069 0.45992965 0.30326352
-0.54067975 -0.7263758 -0.6880963 0.42250794 -0.40531012 0.3914554 -0.43319505 0.6088164
-0.28144294 -0.6752812 -0.47330335 -0.3742329 -0.54963106 0.42219877 -0.72933936 0.5291547
0.45507324 -0.22567798 0.3148668 -0.6008732 -0.5190427 -0.58202016 -0.80918294 0.62566304

lin.bias f4 [2]
00000000: 6019 cfbd 7a89 5dbd
-0.10112262 -0.054086186

conv.0.weight f4 [8, 1, 5, 5]
00000000: 7223 11be eaeb d73e ee7c d73e 82fd f73e
00000010: b145 0dbe 3e64 8abe ad37 93be 6373 39be
00000020: 0052 0ebf 0e9c d63c ddf2 0d3f 46be f03d
00000030: fa12 7abe 4853 433d 98cd 43be 869c ccbc
00000040: 7172 393e d76b 173f 7395 783e 478e a43e
00000050: c643 363d 025a 20be aa44 92be 5697 9bbd
00000060: c0f2 47bd 755e 263f f841 473e 9807 a23e
00000070: 84dc 133f 8c47 193f 4cf1 bc3e 8587 133d
00000080: 118c e13d 4558 0a3f e9b6 273f 944d 7dbe
00000090: 2543 373e d97c 82bd ecd8 2d3c 773e aebe
000000a0: ac3a 92be 17f0 ec3d 9b84 bcbd 80f9 1c3e
000000b0: 6d9e 0bbe c140 da3d 6ef2 9b3e 2a2a adbd
000000c0: 8de8 0bbf 1deb e63e 8ca5 e43e b0c2 cb3e
000000d0: e450 1cbf a7dc 853d 949d efbd 83fe b23e
000000e0: 4bf0 23bd b3b0 8f3e 69bb 493b fdc8 c53e
000000f0: 0276 933d a19a 8dbe 4ef4 b4be 5874 bdbe
00000100: 7ee6 adbe 508f dcbc be74 0fbf 886d 093e
00000110: a5c8 93be 823f 35bd f6be 733e 60d8 bd3e
00000120: e68d 6c3f 3bca 0f3f 4061 743e d48c e1be
00000130: f39d f5be 09c2 fcbd 375d 1bbd 9c23 b0be
00000140: 0066 e7bd 52ec db3e fc1f ccbd 9339 2e3e
00000150: 69d5 c4bd 3331 153f 1459 543d f55c 373c
00000160: fa34 b9be fdaa 04be 567a 35bd 6560 6abe
00000170: 31d4 85be fc01 98bc bad9 cfbd 348d 96bd
00000180: 211a fdbe 2beb f2be ba04 0dbe e2fb 2f3c
00000190: 57aa 993e 21ea bf3e 0407 533e db30 ee3e
000001a0: 0fc1 9b3e 5570 debe 8e1d a83d baf1 c33d
000001b0: a9e6 483e 48ad 9b3e e78e e9bd 36a1 22be
000001c0: 5ab0 383e bff8 9f3d ba5a 73be 1268 5f3d
000001d0: 57e1 2abe c312 7fbe 6455 2cbe 1eca 91be
000001e0: 2c3c d7b8 bab1 90bd 8a96 babe 49b1 903c
000001f0: b34b e0bd 634b 773d 1dda 99be 543c ae3e
00000200: 00ec 4a3d 8822 eabe 636c bfbe b17a 8fbc
00000210: 5d12 813e df4b 16bf 3a94 7cbb a2e5 5d3e
00000220: 71c7 87bc 47d8 603e 4621 a53e 5b0d bb3e
00000230: bd10 c0be 6e6b 5cbe c62f 483d 05a4 1abf
00000240: 8ebf 3fbf 17ca a33b 3d22 b9bd 7142 c2be
00000250: 044e a0be 3277 aabe 92aa 3d3e 14b2 65be
00000260: a6df c339 f7ef dabd 4f39 2cbe ac04 123b
00000270: 976c 483d ea71 253e 00d5 0c3c 29e6 ef3d
00000280: fb5d e23e 7b20 e73e a0fd 453f f95c 6c3f
00000290: ffd8 793e 4cb9 4d3e 6a02 b2be 796c 403e
000002a0: 2a79 6dbe fe64 82be b0e7 1cbe 3b9d 4e3e
000002b0: 9384 30bf 11b5 89be 911a a2bd 5d45 1dbe
000002c0: f6d9 6fbe 8bae a1be 67f4 95be 1209 293e
000002d0: 6735 8cbd 50e2 173e 62f4 93be c382 30bd
000002e0: 4869 d53e 60c7 8ebe 9e82 07bf b2ce cbbd
000002f0: 183f 013f 1d57 2c3e b3ae 513e a6c1 573e
00000300: 7af3 9abd f8c8 c63e 1593 f53d 22c4 05bf
00000310: 4b7f e7be 84bd abbd 8d85 0c3d ec3e 9c3e
-0.14173678 0.42172176 0.420875 0.484356 -0.13796116 -0.27029604 -0.28753415 -0.18110423
-0.5559387 0.02619746 0.55448705 0.11755042 -0.24421301 0.047686845 -0.19121397 -0.02497698
0.18110062 0.59148926 0.2427576 0.321398 0.044498228 -0.15659335 -0.28568012 -0.075972244
-0.04881549 0.6498788 0.19458759 0.3164642 0.57758355 0.59874797 0.36902845 0.036017913
0.11013044 0.5404094 0.65513474 -0.24736625 0.17896707 -0.06371469 0.0106108 -0.34032032
-0.28560388 0.11569231 -0.0920498 0.15329552 -0.13634653 0.10656882 0.30458397 -0.08455308
-0.5465172 0.45101252 0.44657552 0.39796972 -0.6106093 0.06536227 -0.116999775 0.34959802
-0.040024083 0.28064498 0.0030781871 0.38629904 0.072002426 -0.27657035 -0.3534264 -0.37002826
-0.33964914 -0.026923805 -0.5603751 0.13420689 -0.28864017 -0.04425002 0.23803315 0.37079144
0.9240402 0.56167954 0.23865223 -0.44052756 -0.47972068 -0.12341697 -0.037930693 -0.34402168
-0.11298752 0.42953736 -0.09967038 0.1701415 -0.09611017 0.582782 0.051842764 0.011191596
-0.3617323 -0.12955852 -0.04430612 -0.22888334 -0.26138452 -0.018555634 -0.1014895 -0.07351151
-0.49433997 -0.47445044 -0.13771334 0.010741206 0.3001277 0.37483314 0.20608145 0.4652165
0.3042073 -0.43445078 0.08208762 0.0956759 0.1961924 0.3040564 -0.114042096 -0.1588181
0.18036023 0.078111164 -0.23765078 0.05454261 -0.16687523 -0.24909501 -0.16829449 -0.28474516
-0.00010263207 -0.07065149 -0.36442977 0.017662661 -0.109519385 0.06037463 -0.3004922 0.34030402
0.049541473 -0.4572947 -0.3738738 -0.017514559 0.25209323 -0.5870952 -0.0038540498 0.21669629
-0.016574593 0.21957503 0.32251948 0.36533627 -0.3751277 -0.21525356 0.048873685 -0.60406524
-0.74901664 0.004998456 -0.090397336 -0.37941316 -0.3130952 -0.33294064 0.18522099 -0.22431213
0.0003735993 -0.10690301 -0.16818736 0.0022280617 0.048931684 0.16156736 0.008595705 0.117138214
0.44212326 0.45141968 0.77340126 0.92329365 0.24399184 0.20090216 -0.34767467 0.18791379
-0.23190752 -0.25467676 -0.15322757 0.20177166 -0.6895229 -0.26895955 -0.079152234 -0.15358491
-0.23422989 -0.31578478 -0.29288027 0.16507366 -0.06846123 0.14832425 -0.28897387 -0.043093454
0.41681886 -0.27886486 -0.5293368 -0.099515334 0.504869 0.16830106 0.20476799 0.21069965
-0.07565971 0.38825202 0.11990944 -0.522524 -0.45214304 -0.083857566 0.03430705 0.30516756

conv.0.bias f4 [8]
00000000: c686 ad3c 4b82 19bd 490f 8cbe 71cb 4bbd
00000010: 3738 e93d f407 a93e 614d d1be eb01 84be
0.021182429 -0.037477773 -0.27355412 -0.049754564 0.11387675 0.3301388 -0.40879348 -0.25782713

conv.2.weight f4 [8]
00000000: 819c 593f ca72 8a3f 5b2f 6c3f f500 7d3f
00000010: b560 7d3f 4b59 7d3f e30f 933f 80cb 763f
0.8500443 1.0816281 0.9225976 0.98829585 0.9897569 0.98964375 1.1489223 0.96404266

conv.2.bias f4 [8]
00000000: 4cdc 833d 5d48 e4bb 18b1 973e 0eae 74bd
00000010: d0fb 6f3c bceb 4e3d 860e f7bd c9e5 87bd
0.06438503 -0.006966634 0.296273 -0.059736304 0.014647439 0.050517783 -0.12063317 -0.06635625

conv.2.running_mean f4 [8]
00000000: 1d86 2b40 10e3 0d41 bf77 a140 c388 3842
00000010: 2ffd ba40 5970 4942 4ef3 aa40 713e 5441
2.6800606 8.867935 5.0458674 46.133556 5.843406 50.359715 5.3422003 13.2652445

conv.2.running_var f4 [8]
00000000: 9e09 3342 b12a f343 266e 1043 61d6 e544
00000010: 5e08 e742 b117 0545 6d87 1f43 5cf8 4c43
44.75939 486.33353 144.43027 1838.6993 115.51634 2129.4807 159.529 204.97015
